deployment/src/models/acdnet20_20khz_fold4.h5_int8_esc50_fold4.tflite (tflite, 156288 bytes, 13 tensors)

model/dense/MatMul i1 [50, 37] scale=0.01259372 zero_point=0
00000000: 113c f1e0 f500 fc14 f2f4 f4c7 eaf6 5fec
00000010: f901 f70c d428 100a 13e6 f706 d719 c717
00000020: e00d 0641 fff8 f4fe 1816 f1fb 2b09 0bf4
00000030: e012 edfb 0f27 df07 e1ea 13f9 fde0 d30c
00000040: ed02 efe3 2763 e6e3 500c d8d3 fb08 fe22
00000050: f7fc 13f6 efdb fbe4 fbef f0f0 1b1b fdfd
00000060: 0ee8 03e8 cc3d 2533 fa42 ebf3 7fd1 e1fc
00000070: 05e2 0104 f713 df03 0302 f269 08e4 e425
00000080: 1fd1 fa0b 0adf edf5 010b 230d 3cf7 f8de
00000090: fc0c 27f2 08f4 e817 d923 170a daf2 d9de
000000a0: e0f7 6707 0a48 f2eb 1df8 ec15 f4f2 05fe
000000b0: da0d 1af8 4603 e6e8 d9fb 1421 211e ebdf
000000c0: e9ea e610 341e fe22 0724 eefd 221f 0ddc
000000d0: eb20 e8cc def3 eaf5 d44d 0027 0c1a f4c6
000000e0: f0e8 f506 07e0 12f9 0f05 02fb 13f0 e8f4
000000f0: 0af6 f613 190d f703 d64d d9f7 3aee 10fa
0.21409324 0.7556232 -0.1889058 -0.40299904 -0.13853092 0.0 -0.05037488 0.2518744
-0.17631209 -0.15112464 -0.15112464 -0.71784204 -0.27706185 -0.1259372 1.1964034 -0.2518744
-0.088156044 0.01259372 -0.11334348 0.15112464 -0.5541237 0.5037488 0.20149952 0.1259372
0.23928069 -0.32743672 -0.11334348 0.07556232 -0.5163425 0.314843 -0.71784204 0.28965557
-0.40299904 0.16371836 0.07556232 0.81859183 -0.01259372 -0.10074976 -0.15112464 -0.02518744
0.30224928 0.27706185 -0.1889058 -0.0629686 0.54152995 0.11334348 0.13853092 -0.15112464
-0.40299904 0.22668695 -0.23928069 -0.0629686 0.1889058 0.4911551 -0.41559276 0.088156044
-0.39040533 -0.27706185 0.23928069 -0.088156044 -0.03778116 -0.40299904 -0.5667174 0.15112464
-0.23928069 0.02518744 -0.21409324 -0.3652179 0.4911551 1.2467782 -0.32743672 -0.3652179
1.0074975 0.15112464 -0.5037488 -0.5667174 -0.0629686 0.10074976 -0.02518744 0.42818648
-0.11334348 -0.05037488 0.23928069 -0.1259372 -0.21409324 -0.46596766 -0.0629686 -0.35262418
-0.0629686 -0.21409324 -0.20149952 -0.20149952 0.34003043 0.34003043 -0.03778116 -0.03778116
0.17631209 -0.30224928 0.03778116 -0.30224928 -0.65487343 0.7682169 0.46596766 0.64227974
-0.07556232 0.8311855 -0.26446813 -0.16371836 1.5994024 -0.5919048 -0.39040533 -0.05037488
0.0629686 -0.3778116 0.01259372 0.05037488 -0.11334348 0.23928069 -0.41559276 0.03778116
0.03778116 0.02518744 -0.17631209 1.3223406 0.10074976 -0.35262418 -0.35262418 0.46596766
0.39040533 -0.5919048 -0.07556232 0.13853092 0.1259372 -0.41559276 -0.23928069 -0.13853092
0.01259372 0.13853092 0.4407802 0.16371836 0.7556232 -0.11334348 -0.10074976 -0.42818648
-0.05037488 0.15112464 0.4911551 -0.17631209 0.10074976 -0.15112464 -0.30224928 0.28965557
-0.4911551 0.4407802 0.28965557 0.1259372 -0.47856137 -0.17631209 -0.4911551 -0.42818648
-0.40299904 -0.11334348 1.2971531 0.088156044 0.1259372 0.9067478 -0.17631209 -0.26446813
0.3652179 -0.10074976 -0.2518744 0.26446813 -0.15112464 -0.17631209 0.0629686 -0.02518744
-0.47856137 0.16371836 0.32743672 -0.10074976 0.8815604 0.03778116 -0.32743672 -0.30224928
-0.4911551 -0.0629686 0.2518744 0.41559276 0.41559276 0.3778116 -0.26446813 -0.41559276
-0.28965557 -0.27706185 -0.32743672 0.20149952 0.65487343 0.3778116 -0.02518744 0.42818648
0.088156044 0.4533739 -0.22668695 -0.03778116 0.42818648 0.39040533 0.16371836 -0.4533739
-0.26446813 0.40299904 -0.30224928 -0.65487343 -0.42818648 -0.16371836 -0.27706185 -0.13853092
-0.5541237 0.9697164 0.0 0.4911551 0.15112464 0.32743672 -0.15112464 -0.7304358
-0.20149952 -0.30224928 -0.13853092 0.07556232 0.088156044 -0.40299904 0.22668695 -0.088156044
0.1889058 0.0629686 0.02518744 -0.0629686 0.23928069 -0.20149952 -0.30224928 -0.15112464
0.1259372 -0.1259372 -0.1259372 0.23928069 0.314843 0.16371836 -0.11334348 0.03778116
-0.52893627 0.9697164 -0.4911551 -0.11334348 0.7304358 -0.22668695 0.20149952 -0.07556232

model/conv2d/Conv2D i1 [4, 1, 9, 1]
00000000: 00dd 7fce 88ef 8dea 29d7 f981 d319 0e41
00000010: 611b 717f afe0 12c9 0ef0 aa0a eb37 a572
00000020: a497 7f06
0 -35 127 -50 -120 -17 -115 -22
41 -41 -7 -127 -45 25 14 65
97 27 113 127 -81 -32 18 -55
14 -16 -86 10 -21 55 -91 114
-92 -105 127 6

model/conv2d_1/Conv2D i1 [32, 1, 5, 4]
00000000: 68a6 9c00 56b8 d30f 7fdb c80a 2edb 08e7
00000010: 45e3 3593 4307 b333 0e44 d1d7 fa81 cec7
00000020: 05fb c3ea 16c9 4a2b 0afe f6b2 a6d8 d8bc
00000030: dd81 f928 588b 323d 3135 e012 d17f c492
00000040: e481 9ed2 18d3 3fd1 0ef4 3ccc 4228 da1b
00000050: f281 44ff 2e1f 2202 114b d00e bcd8 d8e7
00000060: f2d3 18d3 ebed 9102 2b9e 6645 e27f 62d8
00000070: ce0d 93ce 3198 cd2c e81d c2c0 1cc6 ef06
00000080: 25b7 5431 d17f 19e7 fdca abb8 06f2 18d5
00000090: eff6 d7ea 1ae9 bb50 ce01 7f8f 08d1 871a
000000a0: f0d9 13ae 0ad8 813e f821 69eb e3d4 bb01
000000b0: 18ea f214 0cf2 f802 d80a 0b28 f7d3 e495
000000c0: f608 3154 19a3 81b9 1ce6 0734 02b0 be81
000000d0: ceec 3546 20b5 8abd c9ed 010d fe3a d6eb
000000e0: 0ed7 e1fb d981 ebfe f7f3 c0f8 1836 da05
000000f0: 357f b5ae 32e5 01a4 0ebb c213 c1d9 8826
104 -90 -100 0 86 -72 -45 15
127 -37 -56 10 46 -37 8 -25
69 -29 53 -109 67 7 -77 51
14 68 -47 -41 -6 -127 -50 -57
5 -5 -61 -22 22 -55 74 43
10 -2 -10 -78 -90 -40 -40 -68
-35 -127 -7 40 88 -117 50 61
49 53 -32 18 -47 127 -60 -110
-28 -127 -98 -46 24 -45 63 -47
14 -12 60 -52 66 40 -38 27
-14 -127 68 -1 46 31 34 2
17 75 -48 14 -68 -40 -40 -25
-14 -45 24 -45 -21 -19 -111 2
43 -98 102 69 -30 127 98 -40
-50 13 -109 -50 49 -104 -51 44
-24 29 -62 -64 28 -58 -17 6
37 -73 84 49 -47 127 25 -25
-3 -54 -85 -72 6 -14 24 -43
-17 -10 -41 -22 26 -23 -69 80
-50 1 127 -113 8 -47 -121 26
-16 -39 19 -82 10 -40 -127 62
-8 33 105 -21 -29 -44 -69 1
24 -22 -14 20 12 -14 -8 2
-40 10 11 40 -9 -45 -28 -107
-10 8 49 84 25 -93 -127 -71
28 -26 7 52 2 -80 -66 -127
-50 -20 53 70 32 -75 -118 -67
-55 -19 1 13 -2 58 -42 -21
14 -41 -31 -5 -39 -127 -21 -2
-9 -13 -64 -8 24 54 -38 5
53 127 -75 -82 50 -27 1 -92
14 -69 -62 19 -63 -39 -120 38

model/conv2d_2/Conv2D i1 [12, 3, 3, 1]
00000000: 6a7f 7ebe 5ec5 120c eebf 7fb3 d73e dbed
00000010: 10f8 0a50 10fc 0d13 777f 05bc e36a 0040
00000020: 7f0e 45f7 43d7 7f45 ac06 742e 341d cac6
00000030: cb2e 0178 6c7f 9944 7f81 3745 95fe fdcf
00000040: b242 8109 39c8 ca2f 02a4 1b45 f420 d081
00000050: aab5 f10e 16cc 81e6 90d6 3fc4 7fd3 32ee
00000060: cc20 fe19 25b3 7fb6 b1fc f8f3
106 127 126 -66 94 -59 18 12
-18 -65 127 -77 -41 62 -37 -19
16 -8 10 80 16 -4 13 19
119 127 5 -68 -29 106 0 64
127 14 69 -9 67 -41 127 69
-84 6 116 46 52 29 -54 -58
-53 46 1 120 108 127 -103 68
127 -127 55 69 -107 -2 -3 -49
-78 66 -127 9 57 -56 -54 47
2 -92 27 69 -12 32 -48 -127
-86 -75 -15 14 22 -52 -127 -26
-112 -42 63 -60 127 -45 50 -18
-52 32 -2 25 37 -77 127 -74
-79 -4 -8 -13

model/conv2d_3/Conv2D i1 [12, 3, 3, 12]
00000000: 05e3 e2db 01bb 5131 2b62 e225 0315 f808
00000010: dcfa d213 01fd e419 e5bf 34fb d85e f00d
00000020: 81ca 039b c516 e1fb e491 2f61 2f68 d704
00000030: 1f05 070e dbc9 b82e 001f cbca 06d4 21e9
00000040: 0324 322c c9c8 cb93 bafa 210f eef2 4840
00000050: 2547 c2cc f5f4 f1c7 2102 f2cb eefc d72e
00000060: 36b8 fa0d f02f 27fc e3bd dd8a 11ec f424
00000070: 2cdb 38b7 33e0 1837 5174 030c e5ff 1aea
00000080: e528 2226 19cc 09fc 0128 10d7 ecec da18
00000090: f793 3f04 5106 05d0 f705 2cce 4c15 38fc
000000a0: 275f f4f5 9deb 16a5 24a6 2128 4bef f7c3
000000b0: a3e3 ebde fac0 c119 0f15 0dce d1b5 08ec
000000c0: 337f 3ccf eb12 f4b4 c4fb 2425 4df1 f52e
000000d0: eb0e 8ecd cb10 34fc ebd1 3e32 077f e10b
000000e0: 97b8 dbd7 cb0e 1818 0831 b5b6 efc8 d421
000000f0: bdc1 cbf6 fcb5 d41e 5132 d40d 2fff 362f
5 -29 -30 -37 1 -69 81 49
43 98 -30 37 3 21 -8 8
-36 -6 -46 19 1 -3 -28 25
-27 -65 52 -5 -40 94 -16 13
-127 -54 3 -101 -59 22 -31 -5
-28 -111 47 97 47 104 -41 4
31 5 7 14 -37 -55 -72 46
0 31 -53 -54 6 -44 33 -23
3 36 50 44 -55 -56 -53 -109
-70 -6 33 15 -18 -14 72 64
37 71 -62 -52 -11 -12 -15 -57
33 2 -14 -53 -18 -4 -41 46
54 -72 -6 13 -16 47 39 -4
-29 -67 -35 -118 17 -20 -12 36
44 -37 56 -73 51 -32 24 55
81 116 3 12 -27 -1 26 -22
-27 40 34 38 25 -52 9 -4
1 40 16 -41 -20 -20 -38 24
-9 -109 63 4 81 6 5 -48
-9 5 44 -50 76 21 56 -4
39 95 -12 -11 -99 -21 22 -91
36 -90 33 40 75 -17 -9 -61
-93 -29 -21 -34 -6 -64 -63 25
15 21 13 -50 -47 -75 8 -20
51 127 60 -49 -21 18 -12 -76
-60 -5 36 37 77 -15 -11 46
-21 14 -114 -51 -53 16 52 -4
-21 -47 62 50 7 127 -31 11
-105 -72 -37 -41 -53 14 24 24
8 49 -75 -74 -17 -56 -44 33
-67 -63 -53 -10 -4 -75 -44 30
81 50 -44 13 47 -1 54 47

model/conv2d_4/Conv2D i1 [23, 3, 3, 12]
00000000: efe6 e502 2519 ec01 65d9 ca27 d0f7 fefd
00000010: 0dd0 18e9 10b5 d70d dad1 0be4 f2d0 09cc
00000020: 1d9f 0a52 f443 10d0 1acb deee d19a a9d5
00000030: ff28 c419 18bc 1cdd a6a5 b9da e306 f9eb
00000040: 02d5 0b11 8f81 bfdb 13c5 fef8 123b 150b
00000050: 17f9 fed4 f908 0ed2 d336 46d9 fc19 06fc
00000060: fadb d3d3 e768 252e ddd4 4f16 1a0d e498
00000070: 1a33 7127 f22c 013f e1f8 09ac 1519 daf9
00000080: 0103 3a37 f395 00a9 f13c c602 e316 e343
00000090: c52a e74d 29f5 bc3c cae0 0110 dc3f ecdc
000000a0: e7b6 b3f4 f881 209e d405 d1d9 ccde 832f
000000b0: cb17 42d3 26e3 4028 e815 130d 11e8 f3df
000000c0: ca24 7bd6 a3fa 0fee 27b3 a80c 1bc7 3e99
000000d0: 0200 cffd 25e9 b957 23e7 a1dd eb0c 10bd
000000e0: 0037 de15 271c 2c14 f3f7 d005 b3a6 1dca
000000f0: 23fc 32d9 efc5 ef1d 0f1d e722 f9e3 94f3
-17 -26 -27 2 37 25 -20 1
101 -39 -54 39 -48 -9 -2 -3
13 -48 24 -23 16 -75 -41 13
-38 -47 11 -28 -14 -48 9 -52
29 -97 10 82 -12 67 16 -48
26 -53 -34 -18 -47 -102 -87 -43
-1 40 -60 25 24 -68 28 -35
-90 -91 -71 -38 -29 6 -7 -21
2 -43 11 17 -113 -127 -65 -37
19 -59 -2 -8 18 59 21 11
23 -7 -2 -44 -7 8 14 -46
-45 54 70 -39 -4 25 6 -4
-6 -37 -45 -45 -25 104 37 46
-35 -44 79 22 26 13 -28 -104
26 51 113 39 -14 44 1 63
-31 -8 9 -84 21 25 -38 -7
1 3 58 55 -13 -107 0 -87
-15 60 -58 2 -29 22 -29 67
-59 42 -25 77 41 -11 -68 60
-54 -32 1 16 -36 63 -20 -36
-25 -74 -77 -12 -8 -127 32 -98
-44 5 -47 -39 -52 -34 -125 47
-53 23 66 -45 38 -29 64 40
-24 21 19 13 17 -24 -13 -33
-54 36 123 -42 -93 -6 15 -18
39 -77 -88 12 27 -57 62 -103
2 0 -49 -3 37 -23 -71 87
35 -25 -95 -35 -21 12 16 -67
0 55 -34 21 39 28 44 20
-13 -9 -48 5 -77 -90 29 -54
35 -4 50 -39 -17 -59 -17 29
15 29 -25 34 -7 -29 -108 -13

model/conv2d_5/Conv2D i1 [18, 3, 3, 23]
00000000: cd8f cae4 48df 10c4 fe03 1cf7 d9ab 0e3d
00000010: 0ff6 d614 2f04 f7d0 81ff f7c9 d51b 102b
00000020: e0f0 e70a f7e4 2c03 07c9 f920 35c4 dc8a
00000030: d9b7 b1e2 a610 e301 3f11 e7ad e6d2 ee15
00000040: 00f0 33c5 16f4 f0c3 fc28 31e8 033c 08f9
00000050: 10c1 f80f 1c16 b554 14e9 0035 c128 b7d1
00000060: e437 2547 3c0e 1121 1324 134d ecb4 4678
00000070: 3b49 1226 05c6 1bc3 0c4e 15fb 560a 0227
00000080: fbe4 37f7 9af5 244e 133a fc34 f011 3133
00000090: bf1e cce1 bfbf 1b0f e704 d3a8 2b07 b5fc
000000a0: 06b5 0b11 0bce da04 3eef dfdb 1826 4118
000000b0: 37fd 0a2a 290d 3d26 b516 c9f6 c1fc 2400
000000c0: d517 dbd1 1afa cde6 21bf 2dfe db15 d2f6
000000d0: 10f0 a9d5 320a 425a dc17 2be7 f017 1bf5
000000e0: 191a 0f4d 1df6 cf3b 97cf cd26 6118 e31a
000000f0: 08ff 1be5 29f8 1ddc f8bd 3ded 16b8 25ec
-51 -113 -54 -28 72 -33 16 -60
-2 3 28 -9 -39 -85 14 61
15 -10 -42 20 47 4 -9 -48
-127 -1 -9 -55 -43 27 16 43
-32 -16 -25 10 -9 -28 44 3
7 -55 -7 32 53 -60 -36 -118
-39 -73 -79 -30 -90 16 -29 1
63 17 -25 -83 -26 -46 -18 21
0 -16 51 -59 22 -12 -16 -61
-4 40 49 -24 3 60 8 -7
16 -63 -8 15 28 22 -75 84
20 -23 0 53 -63 40 -73 -47
-28 55 37 71 60 14 17 33
19 36 19 77 -20 -76 70 120
59 73 18 38 5 -58 27 -61
12 78 21 -5 86 10 2 39
-5 -28 55 -9 -102 -11 36 78
19 58 -4 52 -16 17 49 51
-65 30 -52 -31 -65 -65 27 15
-25 4 -45 -88 43 7 -75 -4
6 -75 11 17 11 -50 -38 4
62 -17 -33 -37 24 38 65 24
55 -3 10 42 41 13 61 38
-75 22 -55 -10 -63 -4 36 0
-43 23 -37 -47 26 -6 -51 -26
33 -65 45 -2 -37 21 -46 -10
16 -16 -87 -43 50 10 66 90
-36 23 43 -25 -16 23 27 -11
25 26 15 77 29 -10 -49 59
-105 -49 -51 38 97 24 -29 26
8 -1 27 -27 41 -8 29 -36
-8 -67 61 -19 22 -72 37 -20

model/conv2d_6/Conv2D i1 [38, 3, 3, 18]
00000000: f409 b6ea eba6 d924 19e8 2815 d408 e8f4
00000010: 1cb9 07a7 7fd1 bf06 3efb f7e4 4cfe 311f
00000020: 5d0a 4511 17ff 64a3 f2df f5c3 ee20 1cea
00000030: 34fe 2f0f 5c03 1015 f004 cced 3e03 d6f8
00000040: 39e6 f502 e217 e8fb 23f2 dcd8 f1f2 26f1
00000050: b102 10af 4200 dcd1 562e 3bd7 45d9 e01d
00000060: 12fc 170b c8e0 4b24 07ee 2c34 08dd f3fc
00000070: d715 ee3f 0413 f41f b91b 03dc dfbc 20f6
00000080: 3a02 0b23 25f4 ffb6 ffe6 164a 0b2c da34
00000090: f2c3 3421 d3e3 fa1a f8fd f3bc 1c30 f706
000000a0: c306 c322 0ef9 08f9 704e 0f42 02e2 1932
000000b0: cc25 06f3 13f8 56fe 2114 3421 2e6f dfd0
000000c0: 1e0b 05ef 453b 2a2f f82b 1414 7a5f f36d
000000d0: 16b0 50f2 0fe1 1d33 edce 0b29 f63a 438d
000000e0: fb23 afcd fe02 dc1c f931 13d0 056e b513
000000f0: 4318 106b bd8f 00e0 10da ce3e 31ed da73
-12 9 -74 -22 -21 -90 -39 36
25 -24 40 21 -44 8 -24 -12
28 -71 7 -89 127 -47 -65 6
62 -5 -9 -28 76 -2 49 31
93 10 69 17 23 -1 100 -93
-14 -33 -11 -61 -18 32 28 -22
52 -2 47 15 92 3 16 21
-16 4 -52 -19 62 3 -42 -8
57 -26 -11 2 -30 23 -24 -5
35 -14 -36 -40 -15 -14 38 -15
-79 2 16 -81 66 0 -36 -47
86 46 59 -41 69 -39 -32 29
18 -4 23 11 -56 -32 75 36
7 -18 44 52 8 -35 -13 -4
-41 21 -18 63 4 19 -12 31
-71 27 3 -36 -33 -68 32 -10
58 2 11 35 37 -12 -1 -74
-1 -26 22 74 11 44 -38 52
-14 -61 52 33 -45 -29 -6 26
-8 -3 -13 -68 28 48 -9 6
-61 6 -61 34 14 -7 8 -7
112 78 15 66 2 -30 25 50
-52 37 6 -13 19 -8 86 -2
33 20 52 33 46 111 -33 -48
30 11 5 -17 69 59 42 47
-8 43 20 20 122 95 -13 109
22 -80 80 -14 15 -31 29 51
-19 -50 11 41 -10 58 67 -115
-5 35 -81 -51 -2 2 -36 28
-7 49 19 -48 5 110 -75 19
67 24 16 107 -67 -113 0 -32
16 -38 -50 62 49 -19 -38 115

model/conv2d_7/Conv2D i1 [43, 3, 3, 38]
00000000: 02f9 f5e4 05f6 2c35 e014 e73a 0bfd 0e0b
00000010: 35dc cd43 34df 0019 d7d6 0ae4 32d9 1b24
00000020: e600 f6fa 03f6 e9fa 01de e809 fe12 d805
00000030: ac05 15e6 4be2 150c f700 fdf3 f647 f8d1
00000040: f2d4 c71b 1217 ffff 00fe e606 ccca ff15
00000050: ea2d e21c dcdd cdec df1f 2afb 03d0 3312
00000060: 0829 d6fb def8 d0e4 bbf3 2bdb edd2 f404
00000070: b215 11ed 29d2 15dc 33da d862 fadb 1733
00000080: cd0b e3c1 010d 940d 08c7 0215 27fb 3d05
00000090: eaed e5cf 0d0f aefe fee7 01d2 e911 01ef
000000a0: 1120 cc06 3851 ea30 f847 3106 c818 10dc
000000b0: e0fe 2026 153a fe0a efec 0ecf f900 adec
000000c0: dc12 eb3d ebfd 11c1 f9cc b3e3 1e04 ea33
000000d0: 62fd 0ff7 16f7 d807 e513 ab54 e8e1 181e
000000e0: 0a12 2b37 d0e3 b8da 14e3 e5de d830 f1d6
000000f0: 0ae5 cf15 ddea f2f9 1717 1201 5bf8 1aec
2 -7 -11 -28 5 -10 44 53
-32 20 -25 58 11 -3 14 11
53 -36 -51 67 52 -33 0 25
-41 -42 10 -28 50 -39 27 36
-26 0 -10 -6 3 -10 -23 -6
1 -34 -24 9 -2 18 -40 5
-84 5 21 -26 75 -30 21 12
-9 0 -3 -13 -10 71 -8 -47
-14 -44 -57 27 18 23 -1 -1
0 -2 -26 6 -52 -54 -1 21
-22 45 -30 28 -36 -35 -51 -20
-33 31 42 -5 3 -48 51 18
8 41 -42 -5 -34 -8 -48 -28
-69 -13 43 -37 -19 -46 -12 4
-78 21 17 -19 41 -46 21 -36
51 -38 -40 98 -6 -37 23 51
-51 11 -29 -63 1 13 -108 13
8 -57 2 21 39 -5 61 5
-22 -19 -27 -49 13 15 -82 -2
-2 -25 1 -46 -23 17 1 -17
17 32 -52 6 56 81 -22 48
-8 71 49 6 -56 24 16 -36
-32 -2 32 38 21 58 -2 10
-17 -20 14 -49 -7 0 -83 -20
-36 18 -21 61 -21 -3 17 -63
-7 -52 -77 -29 30 4 -22 51
98 -3 15 -9 22 -9 -40 7
-27 19 -85 84 -24 -31 24 30
10 18 43 55 -48 -29 -72 -38
20 -29 -27 -34 -40 48 -15 -42
10 -27 -49 21 -35 -22 -14 -7
23 23 18 1 91 -8 26 -20

model/conv2d_8/Conv2D i1 [62, 3, 3, 43]
00000000: 0c02 c832 cc1d 1e27 4bdf 42c5 dad5 c00c
00000010: 3ef5 79dd 0cd6 f219 e0dd 361d f4de 07e4
00000020: 0be1 e71b f80e 01cb ecfc 212a 10bb 32b5
00000030: f513 e3d2 e952 fe07 e0f4 cc09 ec53 9c21
00000040: 0128 c9f3 192c bb08 a3d8 1f1d dff3 4ef1
00000050: cce1 f60a fe50 14fe bae4 cd22 fec5 8fbe
00000060: 10ce d22b c609 affd b8c4 431c 1bc3 cf32
00000070: 41c4 e2e1 c730 03e0 5706 b917 f931 e2d6
00000080: 05fa ff13 e4e5 27c9 090d 20d8 fef9 b9d3
00000090: f326 e6f2 dbfd 24c7 c7db 6f07 4901 0206
000000a0: 01d4 21cd 30ef c6d8 dbea 13a6 e70e af08
000000b0: f5e0 06ff 191b e4bd fa27 b6c0 02f2 ccb0
000000c0: 2f13 012b c7ff cef5 fc33 e312 e701 cebc
000000d0: f2c5 11e6 24da 9310 5a1a 9424 c703 2705
000000e0: 31d9 f8d6 bfc9 9fd1 f8c1 f0e2 140c 6ac0
000000f0: 2fd9 fe01 090d da35 2cd2 f008 09ec 3bf1
12 2 -56 50 -52 29 30 39
75 -33 66 -59 -38 -43 -64 12
62 -11 121 -35 12 -42 -14 25
-32 -35 54 29 -12 -34 7 -28
11 -31 -25 27 -8 14 1 -53
-20 -4 33 42 16 -69 50 -75
-11 19 -29 -46 -23 82 -2 7
-32 -12 -52 9 -20 83 -100 33
1 40 -55 -13 25 44 -69 8
-93 -40 31 29 -33 -13 78 -15
-52 -31 -10 10 -2 80 20 -2
-70 -28 -51 34 -2 -59 -113 -66
16 -50 -46 43 -58 9 -81 -3
-72 -60 67 28 27 -61 -49 50
65 -60 -30 -31 -57 48 3 -32
87 6 -71 23 -7 49 -30 -42
5 -6 -1 19 -28 -27 39 -55
9 13 32 -40 -2 -7 -71 -45
-13 38 -26 -14 -37 -3 36 -57
-57 -37 111 7 73 1 2 6
1 -44 33 -51 48 -17 -58 -40
-37 -22 19 -90 -25 14 -81 8
-11 -32 6 -1 25 27 -28 -67
-6 39 -74 -64 2 -14 -52 -80
47 19 1 43 -57 -1 -50 -11
-4 51 -29 18 -25 1 -50 -68
-14 -59 17 -26 36 -38 -109 16
90 26 -108 36 -57 3 39 5
49 -39 -8 -42 -65 -55 -97 -47
-8 -63 -16 -30 20 12 106 -64
47 -39 -2 1 9 13 -38 53
44 -46 -16 8 9 -20 59 -15

model/conv2d_9/Conv2D i1 [58, 3, 3, 62]
00000000: 096c 2921 cbec b8d8 b9e7 f5e1 1ac1 1712
00000010: 130a d0f4 114f f401 0037 1103 3513 1e29
00000020: 03f5 1622 c521 ce00 2102 1210 c918 1122
00000030: 0ee0 fe03 fb06 e1dc 3c22 f4ff 06e8 1348
00000040: ed2a d7f1 282c e7df 0ed6 c4ca 260f 40ec
00000050: e6c6 f51b f6ed 1731 0ded 0c18 2913 dfe5
00000060: 311b d13e eccc f004 f009 ef26 bd19 ee07
00000070: 09fe 2a17 ec15 310c f9f7 0505 122f b924
00000080: ef12 07f7 4106 14c7 091b eef0 48f5 d1c0
00000090: 1df1 d4dc 0cf6 57f4 2046 2622 ce1a 2102
000000a0: ff10 fdf6 0e01 f0e1 1005 e022 0ef1 02ff
000000b0: 1efc beec d7ed e42a da1a 182f fb57 dbc3
000000c0: c2db e20d dfe7 fee4 e7de 04a4 c409 066e
000000d0: 2ac4 417b 3dae b0fd fc0f f9e7 3f17 1e2e
000000e0: b91c 3a02 0dd9 d9c0 d406 14b7 fbc8 29e2
000000f0: d1c3 e2af f702 de9d db08 c018 d0c4 f2fd
9 108 41 33 -53 -20 -72 -40
-71 -25 -11 -31 26 -63 23 18
19 10 -48 -12 17 79 -12 1
0 55 17 3 53 19 30 41
3 -11 22 34 -59 33 -50 0
33 2 18 16 -55 24 17 34
14 -32 -2 3 -5 6 -31 -36
60 34 -12 -1 6 -24 19 72
-19 42 -41 -15 40 44 -25 -33
14 -42 -60 -54 38 15 64 -20
-26 -58 -11 27 -10 -19 23 49
13 -19 12 24 41 19 -33 -27
49 27 -47 62 -20 -52 -16 4
-16 9 -17 38 -67 25 -18 7
9 -2 42 23 -20 21 49 12
-7 -9 5 5 18 47 -71 36
-17 18 7 -9 65 6 20 -57
9 27 -18 -16 72 -11 -47 -64
29 -15 -44 -36 12 -10 87 -12
32 70 38 34 -50 26 33 2
-1 16 -3 -10 14 1 -16 -31
16 5 -32 34 14 -15 2 -1
30 -4 -66 -20 -41 -19 -28 42
-38 26 24 47 -5 87 -37 -61
-62 -37 -30 13 -33 -25 -2 -28
-25 -34 4 -92 -60 9 6 110
42 -60 65 123 61 -82 -80 -3
-4 15 -7 -25 63 23 30 46
-71 28 58 2 13 -39 -39 -64
-44 6 20 -73 -5 -56 41 -30
-47 -61 -30 -81 -9 2 -34 -99
-37 8 -64 24 -48 -60 -14 -3

model/conv2d_10/Conv2D i1 [77, 3, 3, 58]
00000000: e211 e7fc 16eb d2fd 350c 14bc fdbb 1ee1
00000010: 0623 f0ee fff0 21d6 cef2 14e4 deda 10f1
00000020: dae4 c9e9 00fc c6ca 32e6 0422 fb05 fb12
00000030: 250e 0af3 28e4 f003 15fe 0805 f816 adfc
00000040: e3f7 c4d4 02d8 2227 f109 17e4 f5f1 d8fd
00000050: 1e24 02f3 2ac2 d40b d9cc bcfe 1dea f5ce
00000060: ede7 1e0b 09fa 1742 e1e0 ea02 45df 01f9
00000070: 0312 3ac7 55fa dc47 e8d7 2b02 0acd f1d8
00000080: 600b dbcd 1203 01d9 811a e2de 16c6 f9b7
00000090: e1d7 cfb0 fa14 2aef cecb f006 21f7 faae
000000a0: 3c39 0bd2 f00e 0bb1 f800 0320 6adf 16de
000000b0: e255 d918 153c facc fa2b eef3 0f13 9715
000000c0: 31f1 f8f1 15eb 06d8 1f24 f809 f014 c5f4
000000d0: c7e4 0ee8 16f0 0a1d 2ace 1a04 11f4 e9f7
000000e0: b733 ece9 26ee e119 dbd6 bcea d1da 00ef
000000f0: f9e8 01f2 f708 13f7 cc39 0cb0 bff0 e9da
-30 17 -25 -4 22 -21 -46 -3
53 12 20 -68 -3 -69 30 -31
6 35 -16 -18 -1 -16 33 -42
-50 -14 20 -28 -34 -38 16 -15
-38 -28 -55 -23 0 -4 -58 -54
50 -26 4 34 -5 5 -5 18
37 14 10 -13 40 -28 -16 3
21 -2 8 5 -8 22 -83 -4
-29 -9 -60 -44 2 -40 34 39
-15 9 23 -28 -11 -15 -40 -3
30 36 2 -13 42 -62 -44 11
-39 -52 -68 -2 29 -22 -11 -50
-19 -25 30 11 9 -6 23 66
-31 -32 -22 2 69 -33 1 -7
3 18 58 -57 85 -6 -36 71
-24 -41 43 2 10 -51 -15 -40
96 11 -37 -51 18 3 1 -39
-127 26 -30 -34 22 -58 -7 -73
-31 -41 -49 -80 -6 20 42 -17
-50 -53 -16 6 33 -9 -6 -82
60 57 11 -46 -16 14 11 -79
-8 0 3 32 106 -33 22 -34
-30 85 -39 24 21 60 -6 -52
-6 43 -18 -13 15 19 -105 21
49 -15 -8 -15 21 -21 6 -40
31 36 -8 9 -16 20 -59 -12
-57 -28 14 -24 22 -16 10 29
42 -50 26 4 17 -12 -23 -9
-73 51 -20 -23 38 -18 -31 25
-37 -42 -68 -22 -47 -38 0 -17
-7 -24 1 -14 -9 8 19 -9
-52 57 12 -80 -65 -16 -23 -38

model/conv2d_11/Conv2D i1 [37, 1, 1, 77]
00000000: e0a8 fe0a ff26 cc02 b91d 0743 33dc 0aa9
00000010: f910 8415 1a0a f923 34ce da0e ee31 0fdd
00000020: dd0e 0dd3 08cd dcca fc81 1710 fa19 1c1f
00000030: e8e5 f9f6 d40c fecf fc13 b8a8 0602 3615
00000040: e41c ec01 e5ca ff1a f515 03f6 f8e2 032d
00000050: d235 08fc 12d7 bfda b5e7 eee1 1a0c c92f
00000060: 3ff1 3e8d ee03 16c9 f3d4 2ebf f035 d5f2
00000070: f6eb aff7 dc28 2cfa ee75 cee6 dc2c ce0f
00000080: 0318 230a 4110 ca30 0b0e cf31 1238 d20c
00000090: 0df9 2aba 32f2 7f0c 2dd6 cea2 e5dc ce16
000000a0: ddf1 d889 d92d d304 ef9d 1c07 0303 fd05
000000b0: d0e8 63e0 f919 0cf0 f1cc 3a46 e116 f991
000000c0: ffa1 0d2a a918 1dfb efd2 d619 a534 edae
000000d0: ec07 d3eb ed07 3835 017f 492c d7c1 062e
000000e0: c2ff b93c b7e6 2ef1 ec05 ab18 e0d4 0e97
000000f0: e196 efef d211 4cfd d6c1 11d8 ef00 81e1
-32 -88 -2 10 -1 38 -52 2
-71 29 7 67 51 -36 10 -87
-7 16 -124 21 26 10 -7 35
52 -50 -38 14 -18 49 15 -35
-35 14 13 -45 8 -51 -36 -54
-4 -127 23 16 -6 25 28 31
-24 -27 -7 -10 -44 12 -2 -49
-4 19 -72 -88 6 2 54 21
-28 28 -20 1 -27 -54 -1 26
-11 21 3 -10 -8 -30 3 45
-46 53 8 -4 18 -41 -65 -38
-75 -25 -18 -31 26 12 -55 47
63 -15 62 -115 -18 3 22 -55
-13 -44 46 -65 -16 53 -43 -14
-10 -21 -81 -9 -36 40 44 -6
-18 117 -50 -26 -36 44 -50 15
3 24 35 10 65 16 -54 48
11 14 -49 49 18 56 -46 12
13 -7 42 -70 50 -14 127 12
45 -42 -50 -94 -27 -36 -50 22
-35 -15 -40 -119 -39 45 -45 4
-17 -99 28 7 3 3 -3 5
-48 -24 99 -32 -7 25 12 -16
-15 -52 58 70 -31 22 -7 -111
-1 -95 13 42 -87 24 29 -5
-17 -46 -42 25 -91 52 -19 -82
-20 7 -45 -21 -19 7 56 53
1 127 73 44 -41 -63 6 46
-62 -1 -71 60 -73 -26 46 -15
-20 5 -85 24 -32 -44 14 -105
-31 -106 -17 -17 -46 17 76 -3
-42 -63 17 -40 -17 0 -127 -31
