torch/resources/pretrained_models/micro_acdnet_pruned_1659.pt (torch_old, 541122 bytes, 62 tensors)

sfeb.0.weight f4 [7, 1, 1, 9]
000000 15 ff 4a 3e 0c 25 7c 3e cd 6a 0f 3c 50 61 5c 3f
       0.19823869 0.24623507 0.008753491 0.8608599
000010 b3 45 a1 be b3 47 af be 50 8c d0 be 08 91 a3 bd
       -0.3149849 -0.3423439 -0.4073205 -0.07986647
000020 15 64 ce bd a1 18 96 3c 30 e5 67 3c 4b 48 79 3e
       -0.10077683 0.01832229 0.014153764 0.24343984
000030 e7 92 a7 be 22 22 51 3e d6 3f 77 bf 17 99 c1 be
       -0.32729265 0.20423177 -0.9658178 -0.3781211
000040 c1 ac d4 3e c5 6f 4a 3f b1 74 2a 3e c1 78 cc 3c
       0.4153805 0.79076797 0.16646077 0.024959924
000050 b5 36 f7 3d 92 74 84 be 4a ac f7 bb 59 85 87 be
       0.120709814 -0.25870186 -0.0075583803 -0.26468924
000060 83 22 24 3e 7e 33 37 3d d2 89 02 bf ae 95 3f 3f
       0.1602879 0.04472684 -0.5099155 0.7483777
000070 df 9a 92 bd 32 a7 e1 bc 6f 18 9d be b7 e8 93 3d
       -0.071584456 -0.027545545 -0.30682704 0.07222121
000080 3c 43 2b be e0 27 48 bc be 18 1f 3f 7d f8 e7 be
       -0.16724867 -0.012216538 0.6214713 -0.4530677
000090 98 52 09 bf 4e 08 21 bf 57 1a cf bd df 71 26 3f
       -0.53641653 -0.62903297 -0.10112446 0.65017503
0000a0 21 14 fd 3d af ea 93 3e f2 76 af be f4 1f 0b 3e
       0.12357355 0.28889987 -0.34270436 0.13586408
0000b0 f0 54 37 ba 19 2e 8a 3d 7d 6b d5 3d 83 0d 9d be
       -0.00069935527 0.06747074 0.104208924 -0.3067437
0000c0 a1 ec dd 3e 9f 97 82 bf ff ad 32 3f b1 d2 84 3e
       0.43344596 -1.0202521 0.69796747 0.25941995
0000d0 f0 3a 88 bf 39 84 41 3f ab e9 a9 bd 41 4e 5a be
       -1.0642986 0.7559238 -0.08296522 -0.21318914
0000e0 ca a1 a4 bd 41 5e 66 3e 97 f0 69 3d a7 86 2f 3e
       -0.08038671 0.22496893 0.05711421 0.1714121
0000f0 ed 0d 9d be 6a c1 e1 3d 93 1c 32 3f
       -0.30674687 0.11023219 0.6957485

sfeb.1.weight f4 [7]
000000 c8 b2 5c 3f 49 d6 74 3f d7 f7 07 3f 52 79 02 3f
       0.862103 0.95639473 0.5311255 0.5096637
000010 2b 4d 24 3f 3a 09 0b 3f 2c ed 1f 3f
       0.6418025 0.54310954 0.6247127

sfeb.1.bias f4 [7]
000000 30 4d 62 3d c1 55 8a 3d e7 ff 9b 3d 42 73 37 3f
       0.055249393 0.067546375 0.07617169 0.71660244
000010 c7 42 25 3f 04 06 21 3f b5 2f 6c 3e
       0.6455502 0.62899804 0.23065074

sfeb.1.running_mean f4 [7]
000000 23 15 80 b7 ab d2 60 b5 ee 98 e5 38 26 df ad b8
       -1.5268632e-05 -8.3753065e-07 0.00010948056 -8.2908475e-05
000010 c6 23 ad 38 52 f3 6e 37 65 9b fb b8
       8.255946e-05 1.4242558e-05 -0.00011997557

sfeb.1.running_var f4 [7]
000000 a6 8a 0e 3c e4 fd 11 3c c5 c4 9a 3b f7 94 96 3b
       0.008700049 0.00891063 0.004723164 0.0045953947
000010 52 00 15 3c ae e3 37 3b e9 65 e6 3b
       0.009094315 0.0028059292 0.0070311916

sfeb.3.weight f4 [20, 7, 1, 5]
000000 68 17 ee bd 7c 39 8d bd 62 cc be bc e3 83 0c bd
       -0.11625558 -0.0689573 -0.023290817 -0.034305464
000010 cd 8e 20 bd a5 4d ee ba f8 1b 43 bd 79 d3 42 bd
       -0.039198685 -0.0018181099 -0.047634095 -0.047564957
000020 a6 44 08 bd 71 45 50 3c 98 4a 8b bc 75 6b 00 3d
       -0.033268593 0.012711869 -0.017003343 0.03135248
000030 1a 45 cf 3d a6 e3 6b 3e 82 08 4e 3e 23 a7 d9 bd
       0.10120602 0.2303606 0.20120433 -0.10627582
000040 1f b1 eb 38 54 b7 0a bd 86 3f bf bc 04 57 f3 bb
       0.000112386646 -0.03386624 -0.02334572 -0.0074261446
000050 27 5c 0f 3d 79 49 20 3d 65 18 c7 3d 3a 4f 7f bd
       0.034999993 0.03913257 0.0972145 -0.062331416
000060 7c 44 01 bb f5 34 23 3a 6d e6 b5 bc 19 7c 0b 3b
       -0.0019724658 0.0006225848 -0.022204602 0.0021283685
000070 74 ca ae 3c 34 ef 1b bc b6 57 16 bd 92 cf c9 bb
       0.021336772 -0.00951748 -0.03670474 -0.0061587775
000080 17 87 c6 bb 62 d8 e2 3b c9 4a 6a 3d 37 d4 ac bd
       -0.0060585844 0.0069227675 0.057200227 -0.08438914
000090 1f 8d f8 bc f0 dc 82 bd 64 12 18 bd c2 23 87 bd
       -0.03034073 -0.06389797 -0.037126914 -0.06598617
0000a0 fe 3c 81 bd d0 1f 04 3b bb a4 e5 bc f5 38 76 bd
       -0.063104615 0.0020160563 -0.028032651 -0.060112912
0000b0 60 fc f1 bc c7 a0 0a be 55 77 80 bc 75 c5 f9 bc
       -0.029539287 -0.13537894 -0.015681902 -0.030489663
0000c0 c6 4c 0d 3d 52 5a 5f bc e5 fe 39 3e a4 c4 4e 3e
       0.034497045 -0.013632374 0.18163641 0.201922
0000d0 01 3b bf 3d ab b7 cc 3d 0a fc 88 3d e4 52 ed bb
       0.09337426 0.099959694 0.06688698 -0.0072425473
0000e0 e2 ba 08 bd 5a c1 56 bd 34 b0 5c bd f2 5d 45 bd
       -0.03338135 -0.05243049 -0.053878978 -0.048185296
0000f0 e6 dc 55 bc 3c d1 4c bb ce 76 4f bc bd 39 31 bc
       -0.013053155 -0.0031252643 -0.012662603 -0.010816989
000100 c6 d5 48 bc 28 c9 19 3e 8b 88 04 3e 14 15 02 3d
       -0.012257999 0.15018141 0.12942712 0.031758383
000110 c3 5e 09 3e bd a3 12 3e b7 e4 e9 bd 45 51 32 be
       0.13415055 0.14320274 -0.11420577 -0.17413814
000120 57 3d 1b be 4a 07 0e be 17 3a bc bd 49 b9 54 3d
       -0.15160118 -0.13869968 -0.09190767 0.051934514
000130 8d 65 bb 3d a9 9a c7 3d 29 1a 01 3e 64 2a 16 3a
       0.09150229 0.09746296 0.12607636 0.00057283626
000140 cf 8f ff 3a 3c b1 6e bd 99 6c ef bd 37 46 a5 bd
       0.0019497814 -0.058274493 -0.11690635 -0.08070033
000150 f7 93 98 bd bf c4 0a be fb e9 ae bd 8d ff 98 bd
       -0.07450097 -0.13551615 -0.08540722 -0.074706174
000160 67 7f ad bd 4f 0d 37 bd 9a 7a f2 3d c3 d3 36 3e
       -0.08471566 -0.044690426 0.11839791 0.17854218
000170 5c d6 3c 3e 49 7f 8e 3d fd 5d 6c 3c 99 56 c8 3c
       0.18441147 0.069578715 0.014426705 0.024455355
000180 aa a4 75 bc a2 65 85 3c 84 d5 57 bc 22 33 10 bd
       -0.014992872 0.016283814 -0.013173465 -0.035205014
000190 2e b2 e5 bd 9d 3a 24 bc 43 13 eb 3d af dc 75 3e
       -0.11215626 -0.01002374 0.11478283 0.24009965
0001a0 48 7c 67 3e 11 24 d2 3d 02 37 df bc b9 14 8a bd
       0.22606003 0.10260785 -0.02724791 -0.06742234
0001b0 61 51 b8 bd 01 8e f0 bd 64 00 9a bd 54 49 78 bd
       -0.08999897 -0.11745835 -0.07519606 -0.060616806
0001c0 15 6e 73 bc 3e 1b c1 3d 27 ea 10 3c 4d e2 d9 3c
       -0.014857789 0.09429024 0.008844889 0.026597166
0001d0 5a 87 2b 3d b4 3f 76 bd f7 09 e1 bd 54 a2 ba bd
       0.04187713 -0.060119346 -0.10988229 -0.09112993
0001e0 db 5d 1d 3e 1a 01 59 3d a7 59 90 bc be 86 a3 bd
       0.15367834 0.052979566 -0.017620875 -0.079846844
0001f0 65 7a ba bd 0a 5e 07 be 75 c9 a6 bd 82 d1 61 bc
       -0.09105376 -0.13219467 -0.08143894 -0.013782861
000200 2e 7e 10 3d 27 84 53 3d 5e 3e 9f 3c 36 9e 59 bc
       0.035276584 0.051639702 0.019438919 -0.013282349
000210 00 77 4e bc 4b 75 15 3c 62 cb 81 3a b6 c3 fb bd
       -0.012601614 0.009122203 0.0009902532 -0.12293188
000220 86 7d 14 be 3c 70 51 bd 83 da 9f 3d ea 94 4b 3e
       -0.14501008 -0.051132426 0.0780535 0.19881025
000230 fc 25 4c be a2 0c 32 be 56 03 17 bd 48 a7 ef bd
       -0.19936365 -0.17387632 -0.036868416 -0.11701828
000240 1d 0b b3 3d 7a 05 58 3d a2 f1 0b 3d 29 c6 1a 3d
       0.08742354 0.052739598 0.034165986 0.037786637
000250 e1 78 bb bd 97 3d e9 bd 7f bd 4b be 12 42 33 be
       -0.09153915 -0.113887005 -0.19896506 -0.17505673
000260 2a 11 4b bd a0 95 87 3d ee e5 94 3e 86 d5 53 be
       -0.049576916 0.066203356 0.29081672 -0.20686921
000270 67 fd 66 bd 1f 11 c8 3a 3a 1c af 3d 49 6e ab 3d
       -0.056394007 0.0015263892 0.08550306 0.083706446
000280 1b e2 b4 3d 86 ea 0c 3d ca d0 df bc 12 b1 a6 bb
       0.08832189 0.034403346 -0.027321238 -0.0050870264
000290 19 d9 84 bc a1 f2 a0 3c 36 06 de bc 58 59 a5 3c
       -0.016216801 0.019646944 -0.027102571 0.020184204
0002a0 1d ee b9 3a f2 71 5f bc 84 17 c3 3c 6c fa c7 3b
       0.0014185343 -0.0136380065 0.023814924 0.0061028507
0002b0 a7 57 81 bd 4c 38 ef bd 43 c8 00 be df a2 ec 3c
       -0.063155465 -0.1168066 -0.12576394 0.028886257
0002c0 db a6 3a bd 2b 82 ad bd 3f fa 17 be 65 61 ed bd
       -0.045569282 -0.08472093 -0.14841555 -0.11590842
0002d0 c6 b4 3d 3c b5 5b 8c bc 80 7f b6 bd f0 6e 15 3b
       0.011578744 -0.017133573 -0.089110374 0.002280172
0002e0 be 37 32 3d f6 e1 52 bd 90 f2 e8 bd d9 0a a1 bd
       0.04351019 -0.051485024 -0.1137439 -0.07863397
0002f0 24 d3 ed 3d 82 5d 04 3e 4b b7 8f bd d9 52 15 be
       0.116125375 0.12926295 -0.07017382 -0.14582385
000300 46 10 86 be a5 21 5a bc 8c ec 31 3e 20 e6 97 3c
       -0.2618429 -0.013313686 0.17375392 0.01854235
000310 63 8e 45 bd 33 22 5d be f7 60 a7 be 62 b5 61 be
       -0.048231494 -0.21595077 -0.32691166 -0.22041848
000320 ec 4b eb 3c 28 8c ab 3e ee 3f 62 3e 31 d2 b2 be
       0.028722726 0.33505368 0.220947 -0.34925988
000330 48 24 99 be 19 0e 55 3d 0c 0c ec 3d 75 a0 15 bd
       -0.29910493 0.052015398 0.11525735 -0.036529977
000340 8d 0f 30 be 6a 45 03 bd 23 35 6b be b4 30 b3 bd
       -0.17193432 -0.03204862 -0.22969489 -0.08749524
000350 c2 64 b9 bd 5f 8d 4d 3e dd 0e b5 3d 21 db 8f bd
       -0.09052421 0.2007346 0.088407256 -0.070242174
000360 5e 0a b9 bd 52 68 98 be f3 6c 62 be 1e 8f 4a be
       -0.090351805 -0.2976709 -0.22111873 -0.19781157
000370 49 ab 13 3a 07 e7 5e 3d e5 22 d9 bd 20 83 88 bd
       0.00056331285 0.054419544 -0.10602359 -0.06665635
000380 a7 48 28 bd 03 b6 04 3e 9b 10 91 3e 55 86 0a 3d
       -0.04108491 0.12960057 0.2833298 0.033819515
000390 31 f6 5f be 8e 40 8b be 52 d6 c4 bc 44 0b b7 3d
       -0.21871258 -0.2719769 -0.024027977 0.089376956
0003a0 1e e2 37 3e 1d 44 6f 3e 65 db a8 bd 04 cd b1 be
       0.1795735 0.23365827 -0.08244971 -0.34726727
0003b0 25 d2 9b be de 69 0f 3e 31 2f b5 3e e7 a4 d0 3d
       -0.30433765 0.14005229 0.35387567 0.101877026
0003c0 f4 89 a0 bc b7 d3 11 3a 67 d8 d9 3d 2f 0f 75 3c
       -0.019597031 0.0005562859 0.106369786 0.014957233
0003d0 5d 88 2c 3d 18 f2 30 bd 2f fe b7 bd c9 7a 63 3c
       0.042122234 -0.04319963 -0.089840285 0.013884255
0003e0 e7 c8 e7 bd f8 22 d1 bc c9 2c 95 bc 19 be b1 bd
       -0.11317616 -0.02552937 -0.018209832 -0.086788364
0003f0 1f e9 ef bc df 24 93 bd 9a 51 1c be 27 41 14 bd
       -0.029285965 -0.07184767 -0.15265504 -0.036194947

sfeb.4.weight f4 [20]
000000 5a da c8 3e ea 33 24 3f 2f 4a 56 3f 4b 98 c5 3e
       0.3922909 0.64141715 0.83706945 0.38592753
000010 9a dc c2 3e a3 47 ea 3e c7 63 eb 3e d7 d1 19 3f
       0.3805893 0.4575778 0.45974562 0.60085815
000020 88 5e 19 3f 6b a0 f1 3e 97 3a 12 3f c9 bb 8f 3e
       0.5990987 0.47192702 0.5712065 0.28072956
000030 fe db 1c 3f 4c 01 1b 3f 8b 78 0f 3f 9b f4 cf 3e
       0.6127318 0.60548854 0.5604331 0.40616307
000040 ab b7 de 3e d3 5f ba 3e 91 d1 bd 3e cc 90 00 3f
       0.43499503 0.36401233 0.3707395 0.5022094

sfeb.4.bias f4 [20]
000000 01 23 85 bd ee 4a bc bb 81 86 fd 3c 1d 69 0c 3c
       -0.06500817 -0.005746237 0.030947926 0.008569983
000010 0f ce c3 bd 12 06 2c bd 18 27 c3 bd 10 12 c6 bd
       -0.09560787 -0.041997977 -0.09528941 -0.09671414
000020 54 ac 97 bd 89 27 9e 3c 7f ef 00 bc ec ae 2a bd
       -0.07405916 0.019305961 -0.0078696 -0.041670725
000030 1a 76 37 3c 81 f4 7a bd 4e cb 1f bd 80 48 88 bd
       0.011197591 -0.061268333 -0.039012246 -0.06654453
000040 f4 b1 8f bd 11 46 3f bd be 8d 8a bd be 07 22 bd
       -0.07016364 -0.04669768 -0.067653164 -0.039558165

sfeb.4.running_mean f4 [20]
000000 b4 be 42 bd 07 e5 bb 3e d6 5f bd 3d 71 08 39 be
       -0.04754515 0.36698171 0.09246795 -0.18069626
000010 92 b7 68 be e5 98 70 bf de dd a7 bb 23 78 62 be
       -0.22726277 -0.939833 -0.005122884 -0.22116141
000020 48 73 ed be 5c 1c 18 be ee cc b8 be a7 43 50 3b
       -0.46377015 -0.14854568 -0.3609385 0.0031778605
000030 09 03 0e be 81 0f d2 be 57 05 7c be 23 53 52 be
       -0.13868345 -0.41027454 -0.24611412 -0.20539527
000040 c0 68 a7 be ee 9d f3 bd 54 6f a1 be 93 23 46 bd
       -0.32697105 -0.11895357 -0.3153025 -0.04837377

sfeb.4.running_var f4 [20]
000000 25 ad 60 3d f7 0e 04 3e ae dc 99 3e be 80 0a 3e
       0.054852623 0.12896334 0.30051178 0.13525674
000010 fd d9 3c 3e 8e ab 5b 3e c6 a2 5e 3e 18 c5 92 3e
       0.18442531 0.21452162 0.2174178 0.28665996
000020 ce 58 7a 3e cd 35 57 3e 7e a6 5a 3e f0 6f 7f 3d
       0.24447939 0.21016617 0.21352574 0.06236261
000030 30 77 97 3e 52 c1 ce 3e f7 51 db 3e ff 70 10 3e
       0.2958312 0.40381867 0.42835972 0.14105605
000040 07 c1 31 3e 9a ab d4 3d 92 ec 41 3e 41 15 bf 3d
       0.1735879 0.10384293 0.189379 0.09330226

tfeb.0.weight f4 [10, 1, 3, 3]
000000 ab a6 c6 3d 63 2c 06 bf 1e be 04 3e 70 17 9d 3e
       0.09699758 -0.5241148 0.12963149 0.30681944
000010 22 8c 0e bf 76 a2 62 3e 08 ce 3b 3e de 27 9a be
       -0.55682576 0.22132286 0.18340313 -0.3010854
000020 cd 24 0b 3e 0e fb 65 3e ad c7 7f 3e 25 b1 d6 be
       0.13588257 0.22459051 0.24978514 -0.41932026
000030 b5 8c 8c 3e fc fb 68 3e ca 52 d4 be 2c 3b e3 3d
       0.274511 0.22752374 -0.41469413 0.110952705
000040 a2 bd a5 3d ec 41 33 be 99 af 69 3b d2 08 88 3b
       0.0809281 -0.17505616 0.0035657643 0.004151442
000050 f3 cb 4d 3b bd 6a b4 3b 0f 1c d3 3b 11 d7 99 3b
       0.003140208 0.0055058883 0.006442554 0.0046948274
000060 5f 59 18 3b 53 69 a9 3c fb 44 23 3b c1 ad ac 3b
       0.0023246629 0.020680105 0.0024912942 0.0052697365
000070 9a eb b4 3b 46 c5 9d 3b af 21 66 3a 00 74 74 3a
       0.00552125 0.0048147766 0.0008778823 0.00093251467
000080 f4 da 06 3a 59 57 b1 3a c1 87 8b 3c 8f 9a af 3a
       0.0005144321 0.001353006 0.017032506 0.0013397502
000090 7f af 6c bc 63 74 0c 3e b1 06 d7 3d dd 50 8a bd
       -0.014446138 0.13716273 0.10499323 -0.06753705
0000a0 6c a1 9d 3e 22 61 a9 3d 53 89 c2 bd 28 8f 3c 3e
       0.30787218 0.0827048 -0.09498849 0.18413985
0000b0 49 04 ac 3c 3f 1f 98 3e 88 0d 3e be f2 e0 ab be
       0.020998137 0.2971134 -0.1855985 -0.33570057
0000c0 0c a2 c1 3e 6d 95 20 be c5 0c a5 be dd 69 58 3e
       0.37818944 -0.15682001 -0.32236305 0.21134134
0000d0 8b 42 a3 bd 0c 30 67 be 1c 55 be 3b 00 05 ce 3b
       -0.079716764 -0.22576922 0.0058084857 0.006287217
0000e0 5e 19 b3 3b f5 9f 96 3a 11 24 aa 3a 13 a4 4d 3a
       0.0054656705 0.0011491763 0.0012980719 0.00078445784
0000f0 c4 a9 d2 3a 62 5e a9 3c 22 34 cb 3a b7 d7 bf 3c
       0.0016072323 0.020674888 0.0015503208 0.02341829
000100 35 69 aa 3d 5b 82 f2 bd 77 87 ab 3d 45 cb 04 3e
       0.08320848 -0.118412696 0.08375447 0.12968166
000110 ec 44 87 be 21 df 5d be 4a f4 14 bf a5 57 3d 3f
       -0.2641977 -0.21667148 -0.58185256 0.7396186
000120 19 d6 64 3e 0c 26 91 bd 51 a5 e2 be 5b 49 bc 3e
       0.22347297 -0.07087335 -0.4426675 0.36774716
000130 8a cb 29 bd 3e 96 ce be 0a e6 e9 be c3 c0 86 3d
       -0.041453876 -0.40349 -0.45683318 0.06579735
000140 2c 73 a6 3e 24 7d ab be 00 76 b5 be aa 8b f1 3e
       0.32509744 -0.33493912 -0.3544159 0.47176868
000150 a7 ef 9d be 60 76 bc be e6 e9 15 3f 1b 2c 9d bd
       -0.30846903 -0.36809063 0.58560026 -0.07674428
000160 91 0f 80 be e3 b6 78 3e
       -0.25011876 0.24288516

tfeb.1.weight f4 [10]
000000 53 a1 ca 3e b1 e3 3a 3e 09 a5 44 3d 82 5d 2a 3d
       0.39576206 0.1825092 0.048008952 0.041593082
000010 f5 1b 59 3e a0 c7 7d 3e 67 37 3e 3d 33 b3 85 3e
       0.21202071 0.24783182 0.046439555 0.2611328
000020 1a 87 ba 3e 81 17 ce 3e
       0.364312 0.40252307

tfeb.1.bias f4 [10]
000000 e9 63 0d 3c 35 b5 26 3e e3 4f 70 bd 53 42 89 bd
       0.0086297775 0.16280062 -0.058669936 -0.067021035
000010 77 b5 1d 3e 32 d9 9d 3e 0e 38 97 bd e9 6f 9f 3c
       0.15401255 0.3082977 -0.073837385 0.019462543
000020 74 18 8f bd f8 d9 7c 3c
       -0.06987086 0.015432827

tfeb.1.running_mean f4 [10]
000000 a8 1b 01 be cf 29 89 3d 1d ad b1 3c 02 cf 78 3c
       -0.12608206 0.066974275 0.021688992 0.015186073
000010 c2 69 8b 3e 10 60 2e be 78 90 93 3c 73 3e 50 bd
       0.27229124 -0.17028832 0.018013224 -0.050840806
000020 9a 3f 32 be ab 00 25 be
       -0.17407075 -0.16113536

tfeb.1.running_var f4 [10]
000000 5e 53 f6 3d 81 b6 b5 3d 32 f2 80 3a fb 5a 00 3a
       0.1202762 0.088727005 0.0009837805 0.00048963696
000010 f3 5d 2c 3e b8 75 12 3e 86 b9 34 3a ae 3a 5e 3d
       0.16832714 0.14302719 0.00068941 0.05425518
000020 3b c5 eb 3d f9 ae 45 3e
       0.11512228 0.19305028

tfeb.4.weight f4 [14, 10, 3, 3]
000000 bc 8c 40 3a 4d 5c 5e 3b fb bb 75 3b 0c 35 86 3b
       0.000734519 0.0033929527 0.0037496078 0.004095679
000010 fd 89 d0 3b b2 0d 37 3a d2 11 54 3c a7 f3 f1 39
       0.0063641057 0.0006982937 0.012943702 0.00046148637
000020 75 72 94 3b ce 76 6f 38 b2 ce 31 ba 42 a2 e0 ba
       0.004530246 5.7092686e-05 -0.0006782814 -0.00171382
000030 cd f1 be ba 68 03 0e 3a a4 96 65 3b 9a 75 bf b8
       -0.0014567912 0.00054173777 0.0035032416 -9.129495e-05
000040 6f d4 6c 3b 90 53 9a 3b 98 64 a0 38 49 90 a7 b8
       0.0036137362 0.0047096685 7.6481316e-05 -7.990056e-05
000050 4b fb 2f 3a 32 f7 b9 39 fb 33 8a 39 46 37 b3 39
       0.0006713166 0.00035470125 0.0002636014 0.00034182722
000060 b3 5e ed 39 c6 8b 20 3a 8c 5e bd 39 7f f3 97 39
       0.0004527472 0.00061243435 0.00036119332 0.00028982383
000070 bb aa 9a 39 d8 2b 72 3a 9e f8 24 3a 3e 0e 33 3a
       0.00029500373 0.00092381006 0.00062931504 0.00068304304
000080 cb 8f 3f 3a 7d d7 03 3a ec 61 23 3a 85 0a e4 39
       0.00073074986 0.00050293637 0.0006232548 0.00043495386
000090 67 07 58 ba 9a be ed 3a 7a 9d f2 ba 78 2e 95 b9
       -0.0008240849 0.0018138469 -0.0018510066 -0.00028454117
0000a0 74 b4 a6 3a b2 e6 80 bb 80 ce 96 ba 77 b9 8f 3b
       0.0012718574 -0.003933751 -0.0011505634 0.004386123
0000b0 71 cf 51 ba c1 22 09 3c 18 36 1a 3c 25 0d 06 3c
       -0.00080036285 0.008370102 0.009412311 0.008181845
0000c0 aa b7 bd 3b c9 e4 9a 3b 32 cb 1d 3c 5b a7 92 3b
       0.0057897167 0.0047269803 0.009630965 0.0044755167
0000d0 53 e5 c8 3a e4 78 12 3c 77 25 97 39 6d f9 8e 39
       0.0015327133 0.008939955 0.00028828878 0.00027270187
0000e0 e6 f9 80 3a e2 08 31 3a e4 47 3a 3a 3c 0f 47 3a
       0.00098401 0.0006753338 0.00071060495 0.00075935177
0000f0 5a 3b 10 3a f2 86 33 3a 3f 02 f2 39 e0 0d d8 3c
       0.0005502008 0.00068484165 0.0004615951 0.026373804
000100 bc eb 9f 3b fa c9 3d bc 1e ff 2c bd 3f c5 04 bb
       0.0048803966 -0.0115837995 -0.042235486 -0.002025917
000110 ae 89 7b bb 6d 07 e3 39 e5 c2 51 3a 9b b1 ba ba
       -0.0038381624 0.00043302347 0.0008001759 -0.0014243604
000120 28 46 d1 3b aa 8c b8 3b 85 84 75 bb 07 8a 35 3b
       0.006386537 0.005632003 -0.003746302 0.002770068
000130 a8 11 19 3b 0f 20 24 3c 03 dd 66 3b a6 e7 fb 3b
       0.0023356471 0.010017409 0.0035226948 0.0076875268
000140 f1 1a dc 3b 13 5d d6 bc 91 e0 4d ba d6 78 bb 3a
       0.006717079 -0.026167428 -0.00078535924 0.001430298
000150 01 f4 27 3d 20 f1 e8 3b 44 5f cc ba 64 2d 2d 3c
       0.041004185 0.0071088225 -0.0015592356 0.010569904
000160 d4 ab 34 3b 33 2f 7f bb ee 32 3c 3a 36 8e e0 3c
       0.0027568238 -0.0038938045 0.000717922 0.027411561
000170 a0 c8 02 3c 9d a1 a5 bc 6a 81 94 3c 59 b2 80 bb
       0.007982403 -0.020218665 0.018128116 -0.0039275107
000180 4b 7f 27 ba 4e 20 88 3c 8d c8 eb bb ec d0 71 3d
       -0.00063895126 0.016616967 -0.0071955384 0.059037134
000190 ff bc b9 3c 61 18 c5 3b 9f ee 8c 3d 6f c7 22 3c
       0.022673128 0.006014869 0.06881451 0.009935244
0001a0 6e c3 b6 bc 15 4f 39 3b bc 0f 1e 3c d6 f4 ec bc
       -0.022309985 0.0028275896 0.009647306 -0.02892534
0001b0 a2 d5 cb b9 f1 87 29 bb 2e af 98 ba b7 41 93 ba
       -0.00038878346 -0.002586838 -0.0011648887 -0.0011234795
0001c0 1b 90 6b ba 37 38 8a 3a 9c bc 51 3a b8 7d a6 39
       -0.0008986012 0.0010545318 0.0008000822 0.00031755655
0001d0 9d d3 01 3b 9f bf d8 ba b5 c5 43 bb 4b 13 ee ba
       0.001980997 -0.00165366 -0.0029872481 -0.0018163709
0001e0 27 6f f2 ba f5 92 ab ba 53 da 43 39 d2 71 9a b9
       -0.0018496261 -0.0013090061 0.00018677981 -0.00029457972
0001f0 19 95 13 ba ac 9f 45 3a b6 81 7a 3d 9d 6f 31 ba
       -0.0005629822 0.00075387466 0.06115886 -0.0006768646
000200 95 2e a9 bd 91 fb 63 3d 08 3f 33 bd 79 0c 97 bd
       -0.08260838 0.055659834 -0.043761283 -0.07375426
000210 85 81 be 3c ba f4 02 bd df af c8 bc 7c 8a ae 3b
       0.02325512 -0.03197167 -0.024497924 0.005326567
000220 c4 74 65 3c ff fa 95 3d 9c b0 84 ba 65 ee 30 3d
       0.01400489 0.07323264 -0.0010123434 0.0431961
000230 07 59 bb ba bb 79 2c bc 9b ab bd bb c5 5a 17 bc
       -0.00142935 -0.01052707 -0.005788279 -0.00923795
000240 08 5d e1 ba ad b3 56 bb 6e 67 00 bb 8f f5 04 bb
       -0.0017193863 -0.0032760904 -0.00195929 -0.0020287966
000250 50 e0 bb ba 63 aa 91 39 e5 28 72 b9 89 0e 12 ba
       -0.0014333818 0.00027783503 -0.00023094153 -0.0005571624
000260 bd 9e 74 3a 8e 78 da 3c d9 de a7 3c 75 86 22 3c
       0.0009331515 0.026668813 0.020492004 0.009919752
000270 97 5f b4 3c 67 12 ba ba 02 3c fd bb c2 db 30 bb
       0.022018237 -0.0014196158 -0.0077281008 -0.0026986455
000280 70 23 be 3c 76 26 94 bc 7f a5 60 3c 6f 83 1d 3d
       0.023210257 -0.018084746 0.013711332 0.038455423
000290 22 0e a2 3b 05 ee 3c 3d 92 52 02 bb ad 25 30 bc
       0.0049455324 0.04612543 -0.0019885642 -0.01075117
0002a0 bb 39 73 bc 4d 52 0b 3d 94 60 21 bc a3 42 78 bc
       -0.014845307 0.034014035 -0.009849686 -0.015152606
0002b0 1a d0 76 bc 97 22 18 bc 3e bb 25 bd 82 52 04 bc
       -0.015064264 -0.009285591 -0.04046177 -0.008076312
0002c0 28 96 0e bd 82 85 78 bc 2f e1 44 bc f1 53 18 3d
       -0.03481117 -0.0151685495 -0.012016579 0.037189428
0002d0 48 ae e7 bb 48 f3 c6 bb 78 a1 34 3a 4d 8d dd bb
       -0.0070703365 -0.006071482 0.0006890516 -0.006761229
0002e0 92 da 7e bb ee 49 91 bb ef dc 93 3b 3d 1c 26 3b
       -0.0038887602 -0.004433862 0.0045124213 0.0025346421
0002f0 21 33 e1 3c f6 63 4c 3b f4 a2 80 bc 59 dd 24 bc
       0.0274902 0.003118751 -0.015702702 -0.010062539
000300 02 1c c0 bc 00 db f3 b9 a6 c9 16 bc 74 ff 88 bc
       -0.023450855 -0.0004651174 -0.00920335 -0.016723372
000310 b8 64 ac 3b 11 31 b8 bb 05 72 7c 3a 04 f4 08 3b
       0.00526103 -0.0056210835 0.00096300273 0.0020897398
000320 2e d8 08 3b 68 cf 68 b9 f9 b0 a3 39 88 38 11 3a
       0.0020880806 -0.00022202509 0.00031221638 0.0005539735
000330 3e b3 46 ba 32 f7 69 38 0f 2f 9e b9 fb 8e 81 3a
       -0.000757981 5.5781748e-05 -0.0003017117 0.000988453
000340 8e 0a 00 3b 83 21 04 3b 21 91 7d 39 04 78 4a 3a
       0.001953754 0.0020161576 0.00024182025 0.0007723572
000350 65 5d 85 3a cb 9e b5 b9 39 ca 87 39 be 2e a5 b7
       0.0010174928 -0.0003464132 0.00025899874 -1.9691299e-05
000360 87 44 9c bb 12 40 56 bb db 28 a6 bb 59 7a 40 ba
       -0.0047689113 -0.0032691997 -0.0050707883 -0.000734245
000370 ac 2c e7 3a 83 23 01 bb 47 d2 56 3b 5f 81 aa 3b
       0.0017637215 -0.0019705005 0.0032779144 0.0052034105
000380 64 87 9a 39 b8 50 78 3c 8b 1d 25 3c 84 a3 01 3c
       0.00029474043 0.015155964 0.010077844 0.00791252
000390 2b 52 88 3b 10 b1 59 3b 96 1e 02 3b b4 a0 99 3a
       0.004160186 0.003321711 0.0019854656 0.0011720867
0003a0 da df e4 3b 0b 61 1d 3b 01 61 90 3a e8 db 0f 3b
       0.006984693 0.002401414 0.0011015238 0.0021951143
0003b0 a8 24 14 3b 40 77 6b 39 b1 3c 54 3a 0c fe 8e 3a
       0.0022604857 0.0002245577 0.0008096202 0.0010909452
0003c0 6f 53 e5 b9 73 95 83 39 56 71 8f b8 97 f4 8f ba
       -0.00043740447 0.00025097615 -6.839882e-05 -0.0010982928
0003d0 43 2e f6 3b 5e a1 fd ba f0 83 7e 3a 3d 94 fa bb
       0.007512839 -0.0019350459 0.0009708991 -0.007647066
0003e0 d3 84 3d bc 37 a3 e9 3b 1e 9d 9d 3a 4e f1 e9 bb
       -0.011567312 0.0071300524 0.0012024974 -0.0071393615
0003f0 5a 27 2c 3b 6e f1 8f 3a 5c 2b 92 bc 2d f7 a6 3a
       0.0026268573 0.0010981986 -0.017842941 0.0012738459

tfeb.5.weight f4 [14]
000000 36 eb 0e 3e 12 25 5f 3e d0 db 29 3e 17 28 2c 3e
       0.13956913 0.21791485 0.16587758 0.16812168
000010 f7 24 4e 3e f1 12 25 3e e3 e5 6e 3e df dd 55 3e
       0.20131288 0.16120507 0.23329882 0.20885418
000020 08 3a f4 3d 02 f4 4b 3e 34 3c 38 3e 75 27 9d 3e
       0.11925131 0.199173 0.17991716 0.30694166
000030 b3 c6 25 3e 90 54 43 3e
       0.16189079 0.19075227

tfeb.5.bias f4 [14]
000000 49 62 dc bd 36 d1 76 3d 51 43 7c bd fe 2e 7a bc
       -0.10760934 0.060258113 -0.061587635 -0.015269993
000010 ee b7 0e 3e b4 10 bc 3d ea 33 1f bd 78 ff 63 3d
       0.13937351 0.09182873 -0.03886787 0.055663556
000020 05 33 0f 3e 9c 8a 5f 3d b9 44 b3 3c 38 12 37 bd
       0.13984306 0.054575548 0.021883355 -0.04469511
000030 fb 1c 9a 3e d4 4b a9 3d
       0.30100235 0.08266416

tfeb.5.running_mean f4 [14]
000000 df fa 06 3d c1 80 47 3d d1 38 f9 3a a1 cb 15 be
       0.032954093 0.048706774 0.0019014125 -0.1462846
000010 d3 dc c2 bd 21 42 c0 bc 78 6b b6 bc 4f 42 a8 bd
       -0.09514775 -0.023469033 -0.022268042 -0.08215772
000020 ec 5f 42 3c 2a 47 29 bd 1d 8f 4c be 68 b4 92 bd
       0.01186369 -0.041327633 -0.19976468 -0.07163316
000030 e6 cb 2a be 93 fe 5d 3d
       -0.16679344 0.05419786

tfeb.5.running_var f4 [14]
000000 bd bf ce 39 6b 87 61 3b 4b fa 99 39 c6 f2 ce 3b
       0.00039434238 0.003441299 0.00029368917 0.006315562
000010 b4 53 13 3c 44 5d 2d 3a dc bd 3e 3b b9 de 36 3b
       0.008992124 0.0006613324 0.0029104864 0.002790375
000020 f6 10 55 3b 38 d1 7f 3b cb a7 2c 3c c6 54 11 3c
       0.003251133 0.0039034616 0.010538052 0.008870309
000030 ca bb 7b 3c 10 44 7e 3b
       0.015364597 0.0038797893

tfeb.7.weight f4 [22, 14, 3, 3]
000000 21 1b c8 ba 57 c8 66 bb 30 96 20 3b 79 10 0b ba
       -0.0015266874 -0.0035214627 0.0024503581 -0.0005304884
000010 7b c0 77 39 7c 19 09 3b 0e f1 ad bb ee 87 90 ba
       0.0002362746 0.002091973 -0.005308277 -0.0011026838
000020 f5 e3 d7 3a d8 53 fc 3c 13 21 c3 bc cf 31 eb 3c
       0.0016471135 0.030801699 -0.023819482 0.028710274
000030 e2 53 d3 3c 9a d5 f0 3b ca 30 ef bb 75 c2 4d 3d
       0.025796834 0.007349682 -0.0072995173 0.050234277
000040 be 55 da 3c 66 58 fe 3c 67 41 82 bc 27 6f 5f bb
       0.026652213 0.031048011 -0.015900327 -0.0034093352
000050 b2 ed 60 bb 55 57 2a bc 74 ae ab 39 b0 09 82 bb
       -0.0034321365 -0.010396798 0.0003274564 -0.00396844
000060 50 a7 eb bb a1 46 06 bb 31 a3 f5 bb a2 68 66 3b
       -0.007191576 -0.0020488875 -0.0074962606 0.003515758
000070 d6 2c 1b ba 91 6f 29 3b 5c e6 b3 3b a8 16 52 3b
       -0.0005919462 0.0025853852 0.0054901075 0.0032056961
000080 57 57 97 3b 0b 3e 7e 3a fb 0b 8d b9 35 bd 12 3b
       0.004618566 0.0009698576 -0.00026902542 0.0022390608
000090 85 90 30 3d 6e ba dc 3c 89 30 a7 3c 45 86 93 3d
       0.043106575 0.026944365 0.020408886 0.07203344
0000a0 29 0e 8c 3d 23 40 13 3b 3d af 7c 3c 65 d0 10 3b
       0.06838638 0.0022468648 0.015422639 0.002209687
0000b0 42 79 87 3b 70 e6 09 ba a3 e2 a4 3a 29 4c 96 3b
       0.004134328 -0.0005260473 0.001257975 0.0045867157
0000c0 f3 61 0f 3c 3c 27 9a 3b 5d 6e 7d 3b 82 e0 c6 bb
       0.00875138 0.004704384 0.0038670518 -0.006069244
0000d0 88 ad fb bb 6d f7 ca bb 7f 6b 23 bc 9b 2f 90 bc
       -0.0076805986 -0.0061940462 -0.00997436 -0.017600825
0000e0 e3 cf 26 bc 64 3a 15 3c a2 8f 17 3a 68 08 1d 3c
       -0.0101814 0.00910816 0.0005781596 0.009584524
0000f0 8d 44 cd bc f9 8e bf bc e1 62 cb 3b 84 f9 9a 3c
       -0.025057102 -0.023383604 0.0062068556 0.018917806
000100 c2 84 a7 3c 71 e4 ff 3b fd 95 e0 b9 35 6a 79 3c
       0.020449046 0.0078092148 -0.0004283636 0.015223076
000110 4c 9f c7 3b 13 a7 99 bc 89 e7 38 bc 89 d8 a2 bb
       0.0060919877 -0.018756425 -0.011285671 -0.0049696607
000120 7c a2 a2 3d be 13 d6 3c 00 43 18 3c 95 a5 9e 3d
       0.07941148 0.02613246 0.009293318 0.07746426
000130 14 4f ed 3c f8 40 58 3b 36 c3 18 3c 6d b9 44 3c
       0.028968371 0.0032997709 0.009323886 0.0120071
000140 af e8 e9 3b fb 77 3d 3c 37 75 bf 3b 6b 1a 89 3c
       0.0071383337 0.01156425 0.0058428305 0.01673623
000150 e5 50 1d 3c 8f 9b 8a 3a 6d 7b a0 b9 9f 8d c7 3c
       0.009601806 0.0010574925 -0.00030609537 0.024359522
000160 e3 06 8f 3c 86 82 ad bb f4 7e c7 bc 60 0b 4e bd
       0.017459339 -0.0052951006 -0.024352528 -0.050303817
000170 46 1d 37 bd cf 20 18 bd df 53 56 3a cc 5d d9 bc
       -0.04470565 -0.037140664 0.000817595 -0.026533984
000180 24 27 8c bc 01 ea 29 bc da c4 54 bc 40 22 3b 3b
       -0.017108507 -0.010370732 -0.012986386 0.002855435
000190 27 c5 35 3c 46 3f d2 b9 a1 34 14 bd d8 84 4b bc
       0.011094368 -0.00040101464 -0.036183003 -0.012421809
0001a0 01 7c ff 3b b7 6a 77 bc 8b ee 05 bc e2 36 ff bb
       0.007796765 -0.015101126 -0.008174549 -0.007788525
0001b0 d2 65 97 3c b6 3c 13 3d 79 07 5f 3d ed 59 b8 3b
       0.018481169 0.03594657 0.054450486 0.0056259544
0001c0 e0 da cb 3b f1 2e 7c 3d b0 ab 93 3b a0 23 7b 3b
       0.0062211603 0.061568204 0.0045065507 0.0038320795
0001d0 4a 8f 2d 3d fe c4 15 bc 06 e1 c5 bb 19 1f b0 bb
       0.04237298 -0.009141205 -0.006038788 -0.005374801
0001e0 bd fa 23 bd be 10 20 bc ea 59 8e bc a7 0b 7f bb
       -0.040034045 -0.009769617 -0.017376859 -0.0038916857
0001f0 67 d1 19 bc b1 0b 1d bc 6a b1 6c bb 82 56 3a 3a
       -0.009388304 -0.009585307 -0.003611649 0.00071082276
000200 67 4d 9d 3b a6 36 57 3b 96 90 c8 ba 38 d3 66 3b
       0.004800487 0.003283897 -0.0015301879 0.003522111
000210 6b 24 6f 3b 91 25 80 3b 69 45 bd 3a 24 b2 0d 3c
       0.0036490213 0.0039107283 0.0014440242 0.008648429
000220 62 eb a2 bb bf 48 0a bb 37 4c 8c 39 81 5e b9 bc
       -0.0049719075 -0.002110049 0.00026759665 -0.02262807
000230 e0 16 60 3c d0 97 28 bb 7a a3 b4 bb 56 1b da 3b
       0.013677329 -0.0025725253 -0.005512652 0.0066560907
000240 fd 11 d9 bb 8a d3 05 bb 90 30 22 bc 44 0f 49 bb
       -0.006624459 -0.0020420277 -0.0098992735 -0.0030679265
000250 d1 02 70 3a 56 5a cf bb 7a db 90 bb dd 07 a1 3a
       0.0009155693 -0.0063279076 -0.004420695 0.0012285669
000260 cb af 14 bc 97 b4 b9 3b 08 8f d2 3b 85 5d 10 3c
       -0.009075115 0.00566728 0.006425742 0.008811359
000270 2e 3e 1c 3b 19 6f d4 3a 28 95 07 ba d0 5e 40 3b
       0.0023840773 0.0016207426 -0.00051720673 0.0029353388
000280 b7 15 8e 3b 52 d0 40 3b 01 ba 59 3c ea 17 29 3c
       0.0043360847 0.0029421044 0.013288976 0.010320643
000290 ac 65 25 3c 93 0b a8 3c 0f 5c 99 3c a1 f9 9e 3c
       0.010095041 0.020513332 0.018720655 0.019406142
0002a0 c0 5b 66 3c 80 da 4b 3c 40 eb 21 3c 4b 89 aa 3b
       0.014059961 0.012442231 0.009882748 0.005204355
0002b0 2a 1d 05 bb e4 db d9 bb 7d 97 12 3c e4 ce a5 3b
       -0.0020311573 -0.0066485275 0.00894725 0.0050600637
0002c0 87 eb fa 3b eb f0 04 bc fc 34 17 bc 70 90 aa bb
       0.0076574716 -0.00811408 -0.009228941 -0.0052052066
0002d0 76 d6 18 bb d9 c9 99 3b 53 03 01 bc 53 74 2d bb
       -0.0023321188 0.0046932516 -0.007874328 -0.002646704
0002e0 5f 96 6e 3b 81 d2 0b 3a 99 e8 2a bb 46 91 e7 3b
       0.0036405546 0.0005333797 -0.002607858 0.0070668785
0002f0 12 6e 8f bb 6c da 14 3c 55 1f 4d 3c dc d3 84 3c
       -0.004377135 0.009085279 0.012519677 0.016214304
000300 7b fd 99 3b de c7 78 3b 7e e2 9d bb 67 d4 a4 b9
       0.0046994067 0.0037960927 -0.0048182597 -0.0003143877
000310 40 9a 84 bc 84 50 43 3c 70 ce a9 3b 64 e5 66 3b
       -0.016186833 0.011921052 0.00518208 0.0035231942
000320 13 a8 07 bb 35 7d 06 3c 70 6a 0b 3c 81 92 ac 3b
       -0.0020699545 0.008208563 0.008509263 0.005266488
000330 9d e9 b1 3b c9 19 e2 ba 06 a2 2b 39 34 ff da 3b
       0.00542946 -0.0017250116 0.00016368189 0.0066832546
000340 0e ae 4c 3c 86 2f 8f 3b ae 59 a8 bb 2e ca db 3b
       0.01249267 0.004369679 -0.005137644 0.0067074513
000350 9f 57 9a ba 48 04 ae 3b 54 df e8 3b 1f 32 47 3b
       -0.0011775381 0.005310569 0.007106701 0.0030394865
000360 8b 78 07 3b 3a cd 11 3b 9f 5e f5 b8 84 42 b0 3b
       0.0020671214 0.0022247569 -0.00011700135 0.005379023
000370 e9 09 80 3a bd 79 37 3d 40 1e b8 bb 70 f3 d9 39
       0.0009768578 0.044793833 -0.0056188405 0.0004157084
000380 41 db 14 3b 20 ff 6c ba 4f 2f 0a 3c c2 8d 16 3a
       0.0022713693 -0.0009040702 0.008434131 0.00057431695
000390 96 a2 7d bb 67 08 b9 b9 9a e5 07 bb 56 02 af bb
       -0.0038701645 -0.0003529221 -0.0020736218 -0.0053408546
0003a0 e5 60 6c b9 2c 98 e1 3a 29 a7 07 bc 77 00 37 bb
       -0.0002254281 0.0017211488 -0.0082796 -0.002792386
0003b0 f4 c0 00 3c 60 ac 8e 3a 72 39 b7 3b 50 bd 2f 3c
       0.007858504 0.0010885112 0.005591565 0.010726288
0003c0 32 6b 8b 3b b5 4f f6 3b bf 45 36 3c 14 8c 25 ba
       0.004254722 0.007516826 0.011125027 -0.0006315124
0003d0 c5 04 19 bb 7b 7b cc bb 58 9f 59 ba bb cd 0a 3b
       -0.002334879 -0.006240306 -0.0008301637 0.0021179754
0003e0 6e ec 55 bb 70 f0 4f 3c b8 c7 5c 3c 3b bf 8d 3c
       -0.0032642144 0.012691602 0.013475351 0.0173031
0003f0 79 33 4c bc 10 05 3e bc 3b 35 c7 bb 75 19 67 bb
       -0.012463444 -0.011597887 -0.0060793436 -0.0035262976

tfeb.8.weight f4 [22]
000000 2b fe 3f 3e 6d 9d 39 3e ac eb 6f 3e 7e f4 a2 3e
       0.18749301 0.1812646 0.23429745 0.31827158
000010 ad c8 99 3e 1e 0f 36 3e c0 f9 fa 3d 59 f8 b4 3e
       0.30035916 0.17779204 0.12254667 0.35345724
000020 6f 1f a4 3e 16 d7 11 3e df 61 55 3e b9 2d 8c 3e
       0.32055232 0.14242205 0.20838116 0.27378634
000030 9b 53 bf 3e 3a 39 87 3e c5 6c 44 3e 3d b4 ba 3e
       0.37368473 0.26410848 0.19182117 0.36465636
000040 84 14 13 3e f5 15 59 3e d3 d8 a1 3e cf a6 8f 3e
       0.14363295 0.21199782 0.31610736 0.28056952
000050 65 13 9c 3e e1 89 5c 3e
       0.30483547 0.21536972

tfeb.8.bias f4 [22]
000000 7f 5d 23 3e 92 c4 7c be 09 ef 23 3c 88 0c 00 be
       0.15953635 -0.2468436 0.010005721 -0.1250478
000010 6a 2e 0e be 24 65 9e 3d 73 fc 85 3d dd 13 52 be
       -0.13884893 0.07734135 0.065422915 -0.2051539
000020 91 61 f1 bd 4b ab ab bd a2 58 1e bc 13 e5 bf 3d
       -0.117861874 -0.08382281 -0.009664686 0.09369864
000030 97 de 62 be 17 68 e3 bd a9 8a a8 3d 19 b9 13 be
       -0.22155224 -0.11103838 0.08229572 -0.14426078
000040 05 26 8a 3b 02 8a be bd f0 1c 61 bd f8 f8 29 bd
       0.004215958 -0.09303667 -0.054959238 -0.0414972
000050 09 89 17 be 39 7c f0 3d
       -0.14798369 0.117424436

tfeb.8.running_mean f4 [22]
000000 2d 0b 0a 3e 44 07 39 3d 46 a0 a6 bc f4 3e 98 bc
       0.13480826 0.045172945 -0.020340096 -0.018584706
000010 65 20 46 3b 8c 81 62 3c bd b1 e7 bb 6b 78 7d bd
       0.003023171 0.013824832 -0.0070707486 -0.061882418
000020 24 e5 5e bd e3 13 6d 39 fd b8 00 bd 95 ff 0c bd
       -0.054417744 0.0002260949 -0.03142642 -0.03442343
000030 bc 58 88 bd df 81 98 bd c6 6e 9c 3c 2f b5 9d 3c
       -0.0665755 -0.07446646 0.01909579 0.019251434
000040 c4 7f eb bc 26 87 93 bc f6 fb e7 ba 84 38 b8 3b
       -0.028747447 -0.01800878 -0.0017698992 0.0056219716
000050 e6 0a 37 bd 3f 36 b7 bb
       -0.044688128 -0.0055911834

tfeb.8.running_var f4 [22]
000000 a6 8c 16 3b 36 e7 4e 39 5a eb a4 39 f0 9f 34 3a
       0.0022972017 0.00019731824 0.00031455868 0.00068902876
000010 c3 6a 64 3a 1a 16 85 3a e2 da 2c 3a 09 44 82 3a
       0.00087134185 0.0010153682 0.00065938954 0.0009938489
000020 ed 70 3c 3a 8a 08 af 39 d5 27 c6 39 a0 03 da 3a
       0.0007188458 0.00033384963 0.0003779518 0.001663316
000030 10 16 c6 3a 2c b8 1c 3a 94 d8 20 3a 24 b2 86 3a
       0.0015112776 0.00059783715 0.0006135788 0.0010276479
000040 c8 cc 91 3a 8d 12 36 39 cf 72 23 3a 9d 1e 33 3a
       0.0011123652 0.00017363783 0.00062350644 0.000683287
000050 81 6d 1a 3a d1 9c 80 3a
       0.0005890951 0.000981236

tfeb.11.weight f4 [31, 22, 3, 3]
000000 29 6e 00 bd 8b 3c 5d bc 76 aa 6c bb 0d 8e 24 bd
       -0.031355057 -0.013503204 -0.0036112345 -0.040174533
000010 03 a1 64 bc 6a 48 bf bb 4a bd 52 bc e7 7e 09 bc
       -0.013954404 -0.00583749 -0.012862513 -0.008392072
000020 b2 52 43 bc 89 3b 10 3b 31 02 d5 3a 78 94 b4 b8
       -0.011921572 0.0022008142 0.0016251263 -8.610723e-05
000030 77 e6 74 39 3c 42 b2 3a ca f7 cf 3a 77 64 16 3b
       0.00023355508 0.0013600062 0.0015866694 0.0022948065
000040 79 62 ff 3a 2e dd d4 3b 4a 86 1f 3c 90 52 c5 3b
       0.0019484303 0.0064960932 0.009736607 0.006021805
000050 30 82 b6 3b ec 4a 31 3a 79 9c be bb 4f 4e 19 bc
       0.005569719 0.00067631784 -0.005816993 -0.009357049
000060 04 cb b8 bb 72 d3 90 ba 73 fe c0 bb d9 3b 40 3c
       -0.0056394357 -0.0011049344 -0.0058897077 0.011733019
000070 fd d8 13 bc 1b 21 05 3b f5 09 c2 3b 39 b9 a1 bb
       -0.009023902 0.0020313922 0.005921597 -0.0049354103
000080 ce 45 9f bb 5f ca 3b bb 1c 00 44 3d 9a e8 39 bc
       -0.0048606163 -0.0028654558 0.047851667 -0.01134696
000090 17 a9 86 3b 1f 41 e5 39 06 3f 22 3c b5 47 56 3c
       0.0041095125 0.00043726803 0.009902721 0.01307862
0000a0 5a 94 29 3b f0 26 03 3c 0c 92 b6 3c 5e c5 b8 bb
       0.0025875778 0.008004889 0.022286437 -0.0056387624
0000b0 ec 4e fa ba 77 ec 8c 3b f3 be d2 bb ff cf d7 bb
       -0.0019097007 0.0043006497 -0.0064314543 -0.0065860744
0000c0 07 d8 10 bd 6c a7 59 bd f2 ba 29 3d 26 b3 1b ba
       -0.03536227 -0.05313818 0.04143805 -0.0005939476
0000d0 fe fe 65 bb ec 22 ad 3a e7 62 6b ba 59 2b 7f bd
       -0.0035094614 0.001320926 -0.0008979276 -0.0622972
0000e0 c0 72 bc 3a 60 fd 25 3b a9 12 56 bd 83 6c 3b 39
       0.001437746 0.0025328025 -0.05226389 0.00017874133
0000f0 90 f5 9d bb a5 65 d1 39 5f 9d 90 b9 73 3a 8c 3c
       -0.004820533 0.00039939318 -0.0002758307 0.017117715
000100 fe ea 68 3d 10 f4 2f bb f9 73 88 3c bd bd cd 3b
       0.05686473 -0.0026848353 0.016656863 0.006278722
000110 aa 7f 2c bc 0d 88 92 3b 38 d2 aa 3a b1 21 b4 bb
       -0.010528484 0.004471785 0.0013032621 -0.0054971804
000120 11 2f 24 3c 93 79 c8 3b f4 50 26 bd 04 4c 5a 3c
       0.010020987 0.0061180084 -0.040604547 0.013323788
000130 c7 23 0a bb b1 f5 3e bd 7f 19 3a 3c 3e 4c 03 3b
       -0.0021078454 -0.04662103 0.011358618 0.0020034458
000140 37 3d 18 bd 52 46 dc 3a a6 84 d4 ba 44 bf 54 bb
       -0.037167754 0.0016805625 -0.0016213849 -0.0032462636
000150 18 98 e1 3a a2 71 b2 ba 7c b0 61 bb b2 39 62 bb
       0.0017211465 -0.0013614187 -0.0034437468 -0.0034519252
000160 7a 9b c0 bb a3 ad 55 bb c3 68 1a 3a bf e4 a6 bb
       -0.0058779093 -0.0032604716 0.00058902445 -0.0050931866
000170 3e 5e 5a bb ea 0b 51 bb fe ed 06 bc 89 38 da 3a
       -0.0033320333 -0.003189797 -0.008235453 0.0016648929
000180 b2 f0 cd ba b9 bc 8f bb aa 47 f9 3a 22 81 dc bb
       -0.0015711992 -0.004386511 0.001901855 -0.006729261
000190 1c aa 02 3c 36 26 7d 3a 2c 16 10 bb 6e 43 0b 3d
       0.007975128 0.0009656878 -0.0021985872 0.033999853
0001a0 76 30 22 3c 97 5a a3 3a 46 95 28 39 63 c6 27 bd
       0.009899249 0.0012462911 0.00016077337 -0.04096068
0001b0 ac 51 0a 3d 07 54 36 bd 0f 97 35 ba f9 45 ea bb
       0.033769295 -0.04451373 -0.00069271115 -0.0071494547
0001c0 6e 9e ba bc ef 5b 85 3b 2f 65 f1 bb 78 9c cc 3b
       -0.022780623 0.004069797 -0.0073667984 0.0062442385
0001d0 7a dd 28 bb 24 3e f2 3c de 2a c7 3a 15 98 c3 3a
       -0.0025766776 0.029570647 0.001519527 0.0014922643
0001e0 16 6c a6 3a c4 87 a5 3b 6f 81 1e bb 5c 47 2e 3a
       0.0012697007 0.005051585 -0.0024186035 0.00066482066
0001f0 1f 0c 0e 3c ef f0 6e bb 16 48 dc ba 0a c9 25 bb
       0.008669882 -0.0036459526 -0.0016806151 -0.002529683
000200 6a 9e 8a bb 43 bd 91 bb e6 48 19 bc e8 6a 85 bc
       -0.00423031 -0.0044476106 -0.009355759 -0.016286328
000210 49 32 82 bc e2 a6 7d bc 6a d6 a7 bc 40 01 80 bd
       -0.015893118 -0.0154816825 -0.020487983 -0.062502384
000220 14 0d 36 bd 61 02 dc 3b 44 e6 1e bd 07 8b de bd
       -0.044446066 0.006714151 -0.038793817 -0.10866361
000230 38 25 14 bb 50 d9 41 bb 8b 46 8c 3b 6b b3 06 bc
       -0.0022605192 -0.0029578991 0.0042808703 -0.0082214875
000240 47 d6 31 bb 1b 3e fc ba cb d1 88 39 8c 97 2a 3b
       -0.0027135776 -0.0019244583 0.0002609625 0.002603027
000250 09 e8 10 b9 ee dd 83 3b 6d 6f d4 3a 2a 6b 95 ba
       -0.0001381935 0.004024259 0.0016207524 -0.0011399735
000260 22 09 f3 ba 32 fa 2d bb 25 d0 3a bc 1c 3a 60 bc
       -0.001854215 -0.0026546833 -0.011402165 -0.013685729
000270 2c c6 0a bb 96 a4 d7 bb 5f 98 66 bb 2f 79 4d ba
       -0.0021175249 -0.0065808995 -0.0035186035 -0.0007838187
000280 ff 17 d1 bb 71 8d 81 3b 2c b5 f2 bb 3a 79 89 bb
       -0.0063810344 0.0039536287 -0.0074068513 -0.0041953595
000290 dd 97 55 3c 8d 09 20 bb 45 16 cf 3b 00 a0 71 3c
       0.013036695 -0.0024419755 0.0063197934 0.01474762
0002a0 d4 7f c7 3b 31 6d 4b bc 84 2a b8 bc 02 3f 27 3a
       0.0060882363 -0.01241617 -0.02248121 0.00063799333
0002b0 19 42 8b 3a d6 14 a8 bb a8 45 53 3b d8 92 6e bb
       0.0010624557 -0.005129437 0.0032237563 -0.0036403444
0002c0 f8 77 91 bb 77 58 ba ba ab d9 51 39 7b e4 9f bb
       -0.00443935 -0.0014217038 0.00020012881 -0.004879532
0002d0 b7 ec e0 bb 28 21 25 bd 5c 79 9a ba f6 3d 0b 3b
       -0.006864156 -0.040314823 -0.0011785435 0.0021246648
0002e0 01 e0 36 b9 98 90 41 3c 81 88 64 3a 85 e6 ba 3a
       -0.0001744032 0.011814259 0.00087178504 0.0014259374
0002f0 9e 0e a1 ba 3e 55 3d bc c6 38 5e bc f2 c5 4b bc
       -0.0012287681 -0.011555968 -0.0135633405 -0.012437331
000300 63 02 31 bc 17 9e 34 bc 90 b8 c7 bb 36 b6 66 bb
       -0.010803792 -0.01102402 -0.0060949996 -0.003520382
000310 a4 da 10 bc cc 1e 27 bb 92 b6 fd 3a 8b 87 a6 bb
       -0.0088411905 -0.0025500534 0.0019356778 -0.005082076
000320 b1 90 ad bb c3 83 8c 3b 4e 4a 7c 3d 59 ba 7c 3b
       -0.0052967896 0.004288168 0.0615943 0.003856322
000330 26 69 87 bb fa 33 d0 bb 32 5d 1d 3c 5a ca 2b bb
       -0.0041324077 -0.0063538523 0.009604739 -0.002621314
000340 1a c6 1a bb e1 58 8d bb 0d 7c cc bb 5b 10 e5 bb
       -0.0023616613 -0.0043135737 -0.006240374 -0.006990475
000350 fc 22 03 bc 71 6c 88 b9 f5 a5 4b bb 23 29 84 bb
       -0.008003946 -0.00026020737 -0.003107426 -0.004033224
000360 9a d3 26 3a dd 9a 98 bb e7 8c 03 bb 72 c2 4a bb
       0.00063639286 -0.004657133 -0.0020072998 -0.0030938652
000370 24 36 92 3b 6c f8 c2 3a a5 5d 4e bb 11 8a 43 bb
       0.0044620205 0.0014875061 -0.0031488922 -0.0029836933
000380 d0 0d 65 bb 77 69 4f bc 2d 11 19 3d e4 38 0d 3b
       -0.003495086 -0.012659422 0.037369896 0.0021548802
000390 9e a0 3c bc b3 05 8f 3c c9 6c a1 3b 0f 7b e1 bb
       -0.0115129035 0.017458772 0.0049262983 -0.006881125
0003a0 ff 9a 05 3a 07 20 1c bb bd f0 46 3c 19 c4 e1 3b
       0.00050966436 -0.00238228 0.012142357 0.0068898317
0003b0 8c bf f0 b9 31 dc 92 3b 6c 59 43 3b 18 e6 17 bb
       -0.0004591908 0.0044818153 0.0029807938 -0.0023177918
0003c0 d0 0b dc 3b 17 c5 81 3b d8 7f e7 3a 35 dd a2 bb
       0.0067152753 0.0039602625 0.0017662002 -0.0049702176
0003d0 92 11 aa bb 2d 94 85 bb 43 d6 0f 3b cf 5b 82 3b
       -0.005190083 -0.004076502 0.0021947778 0.0039782296
0003e0 3f 43 93 bb b4 ba 54 3a 6e bb b5 3a ca 90 c9 3a
       -0.0044941003 0.0008114979 0.0013865063 0.0015378234
0003f0 50 eb 7a 3b 28 1b 71 3d 83 4e 4f 3d 6c d8 cc bb
       0.003828723 0.05886379 0.050611984 -0.0062513854

tfeb.12.weight f4 [31]
000000 f7 eb 9e 3e 60 2f 1b 3e a6 02 22 3e f6 79 24 3e
       0.31039402 0.15154791 0.15821323 0.1606215
000010 29 a1 87 3e 2c a1 31 3e 14 be 5a 3e 6d e6 2c 3e
       0.26490143 0.17346638 0.21361572 0.16884775
000020 81 e9 2f 3e c2 e7 83 3e 8f a6 2f 3e 19 ee 53 3e
       0.17178918 0.25762755 0.17153381 0.20696296
000030 ed 37 74 3e 23 7b 94 3e 92 a9 b5 3e 33 f3 1f 3e
       0.23849459 0.29000196 0.35480934 0.15620117
000040 fc 84 6f 3e ad 3f 4b 3e 1c 46 7b 3e e5 55 59 3e
       0.23390573 0.19848509 0.24538463 0.21224172
000050 dd b4 2f 3e fc 43 02 3e 0a c7 2a 3e cb 69 15 3e
       0.17158838 0.12721246 0.1667749 0.14591138
000060 9e 33 a6 3e 7b 14 91 3e e4 f2 ff 3d ca 65 95 3e
       0.32461256 0.28335938 0.124974996 0.2917922
000070 c8 83 00 3e 35 d5 e9 3d f7 f9 2c 3e
       0.1255027 0.11417619 0.16892229

tfeb.12.bias f4 [31]
000000 d6 8a 2c be 1e a7 83 bc 6a 07 18 bc 28 da 60 bd
       -0.16849837 -0.016070899 -0.009279111 -0.05489555
000010 64 42 e7 bd 9b 64 cd bc 57 ca 30 be 85 0b 5e bd
       -0.1129196 -0.025072386 -0.17264687 -0.054210205
000020 52 30 3b bd 62 3f ae bc 2c bc 19 be eb c8 14 be
       -0.04570038 -0.021270458 -0.15013188 -0.14529769
000030 f9 3a ad bd 2c 7a f4 bd 72 58 30 be d8 09 26 bd
       -0.08458514 -0.11937365 -0.17221239 -0.04053673
000040 8b e2 43 bd 20 27 31 bd be 18 10 bd af f0 0b be
       -0.04782347 -0.043250203 -0.035179846 -0.13666032
000050 12 bf 6c bd f0 2e 86 3d a3 33 cb 3d 2a bf 3a 3d
       -0.057799406 0.06551921 0.09921958 0.045592465
000060 86 50 ed bd 72 88 b6 bd 49 33 5d 3b d2 68 91 3c
       -0.11587624 -0.08912744 0.0033752492 0.017750178
000070 87 c8 e3 3d 8a 9f 0d 3e 5a c2 b7 bc
       0.11122232 0.1383039 -0.022431541

tfeb.12.running_mean f4 [31]
000000 2f f2 dc bd 73 bf 99 3c 8b 81 b8 3c c1 55 df 3c
       -0.1078838 0.018768048 0.022522708 0.02726257
000010 58 6a e3 bd b0 aa b8 bb e7 ed c8 3a 06 11 13 bc
       -0.11104268 -0.005635582 0.001532969 -0.008976227
000020 43 52 00 bc b3 7a 58 bd ff 4a b1 bc 1f 5c 1a 3d
       -0.007832113 -0.05285139 -0.021642206 0.03768551
000030 74 fa 66 bd 86 0a de bd 06 43 36 bd 02 48 06 bc
       -0.056391194 -0.10841851 -0.044497512 -0.008195879
000040 f0 57 27 bd 0c a7 00 bd 96 7d 8a bc 7c 99 cd bc
       -0.040855348 -0.03140931 -0.016905587 -0.025097601
000050 7e af 25 3b 66 6a 9e bc 6f 2d 33 bd 33 c3 46 bd
       0.0025281603 -0.019337844 -0.0437445 -0.048526
000060 ce d5 83 bd 25 68 e1 bc f3 00 df bb 62 ad 41 bd
       -0.064372644 -0.02751548 -0.006805533 -0.04728449
000070 ad da 77 bd 78 25 49 bd b1 25 7f 39
       -0.06051128 -0.049108 0.00024332736

tfeb.12.running_var f4 [31]
000000 ce 8b 83 3b ce b0 93 3a a2 c9 ac 39 e5 ac e0 3a
       0.0040144688 0.0011267902 0.00032956625 0.001714137
000010 6b c4 21 3c 14 b3 0e 3b 30 65 5e 3b 42 b2 b8 3a
       0.00987349 0.002177422 0.0033934824 0.0014091211
000020 7c e9 3e 3a f3 b6 2b 3b 72 82 47 3b 82 1d 62 3a
       0.00072827167 0.0026201576 0.0030442742 0.0008625613
000030 1b 33 e9 3a 09 ed c9 3b b5 88 e5 3a 22 b0 90 3a
       0.001779172 0.00616229 0.0017512055 0.001103882
000040 03 c6 c4 3a 95 24 9a 3a 8e 25 e7 3a 0e bf 2c 3b
       0.0015012625 0.001176017 0.0017635094 0.0026358995
000050 80 e3 6c 3a 5c c1 60 3b ad 6f 99 3b b4 6b ef 3b
       0.00090365857 0.0034294939 0.0046825022 0.0073065404
000060 74 45 a0 3b 61 2f 33 3b c2 8f 9c 39 b7 e2 e9 3b
       0.004891092 0.0027341472 0.00029861747 0.007137622
000070 b4 3d 09 3c 59 bf a8 3b 7b f9 89 3b
       0.008376528 0.0051497635 0.0042106486
