torch/resources/pretrained_models/micro_acdnet_pruned_trained_fold4_86.00.pt (torch_old, 541110 bytes, 62 tensors)

sfeb.0.weight f4 [7, 1, 1, 9]
000000 88 cc cc bd 3b 45 c6 bd 57 1b 32 3d 7e a8 c5 3c
       -0.09999949 -0.096811734 0.043483105 0.024128195
000010 a4 9b 04 bf f0 66 00 3e 0e 7c d8 bd cb 4e 7a 3e
       -0.5179999 0.12539268 -0.105705366 0.2444412
000020 3c 4a 63 3f 6a f4 da be 14 05 a2 be 14 72 82 be
       0.8878515 -0.42764598 -0.316445 -0.2547766
000030 bd 1c 1c be a8 64 0f be 84 e3 6c be 77 05 a0 3e
       -0.15245338 -0.14003241 -0.23133665 0.3125417
000040 95 99 1f 3e 7e 4d 25 3e 95 25 36 3f b0 ab e9 3c
       0.1558593 0.16142842 0.71151096 0.02852425
000050 1a d1 41 be d5 ea 4d bf 8a 92 6f be 45 52 42 3f
       -0.18927422 -0.8043645 -0.23395744 0.75906783
000060 bd 79 99 bc 5d 27 29 bd 14 68 86 be ad cb 27 bc
       -0.018734807 -0.041297305 -0.2625128 -0.010241431
000070 d9 14 25 3e f1 96 ed bd e7 1e e3 3e 1d 8f b8 3e
       0.16121234 -0.116010554 0.44359514 0.36046687
000080 f2 b2 b8 3e 18 45 07 3e 26 ed 4b bf c6 c3 2a bf
       0.36074024 0.13209951 -0.79658735 -0.66704977
000090 36 fb 63 be e5 91 7b be ab 75 43 3f 56 03 8f bf
       -0.22263798 -0.24567373 0.7635142 -1.1172893
0000a0 5c 5f 0e 3f 6c 00 7f 3f 45 d4 a0 bf 95 3a 1a 3f
       0.55614257 0.9961002 -1.256478 0.6024564
0000b0 e8 40 ed bd 3a de d1 bd df 2e 33 bf 3a de d5 be
       -0.115846455 -0.102474645 -0.69993395 -0.41771108
0000c0 64 12 8f be fb 0b 5c 3b ee 4e 8d 3f 3a b1 23 3f
       -0.27943718 0.0033576477 1.1039712 0.639423
0000d0 49 50 88 be 25 7a 96 3d 42 78 9d 3e 88 b7 6e 3e
       -0.26623753 0.07347516 0.30755812 0.23312199
0000e0 f3 72 c8 3e 14 a7 6b 3e cd 17 33 be 09 dc 39 3e
       0.391502 0.23012954 -0.17489548 0.18150343
0000f0 6e 02 aa be dd 61 04 bf 4d 4f b5 3e
       -0.3320498 -0.5171183 0.35412064

sfeb.1.weight f4 [7]
000000 c4 0b 2c 3f 9c 0f 2d 3f a8 be 2e 3f 91 4e 5d 3f
       0.6720545 0.67601943 0.6825967 0.8644801
000010 03 e9 5f 3f 87 05 90 3f b9 e7 30 3f
       0.8746492 1.1251687 0.6910358

sfeb.1.bias f4 [7]
000000 07 34 3f 3f e8 95 4b 3e 07 f6 48 3f 9e 88 0c 3e
       0.7468876 0.19881403 0.7850041 0.1372399
000010 de 70 b2 3e 8a cd 8b 3d 2f a4 a1 3d
       0.34851736 0.06826313 0.07892644

sfeb.1.running_mean f4 [7]
000000 67 21 c8 36 b5 9f 2a b7 d8 1e a6 b5 dc 9f f7 b5
       5.964353e-06 -1.0169974e-05 -1.237694e-06 -1.8449459e-06
000010 c4 19 6c b5 18 f7 5a 35 5d 68 00 37
       -8.7954345e-07 8.15709e-07 7.6536935e-06

sfeb.1.running_var f4 [7]
000000 aa bb 25 3c 02 5b 81 3c 48 4b c1 3b d9 66 5c 3c
       0.010115543 0.015790466 0.005898867 0.013452255
000010 fc 3e 68 3b 75 a8 9c 3c e1 bb 2c 3c
       0.0035437932 0.019123295 0.010542841

sfeb.3.weight f4 [20, 7, 1, 5]
000000 21 4a 70 be 1a ca bf 3e 31 e6 85 bb 7a bf 74 3c
       -0.23465778 0.3745888 -0.004086279 0.01493823
000010 50 fd 01 3d c4 d8 8b bc ba 29 44 bd 11 4c 1e 3d
       0.03173572 -0.017071135 -0.047891356 0.03864676
000020 e2 41 58 3d e9 03 f3 3c 53 70 f3 3d 16 17 45 3e
       0.052797206 0.02966495 0.118866585 0.19247088
000030 d7 2f b5 bc 06 7b bc be 29 7f c4 bd fe d1 24 be
       -0.022117538 -0.3681261 -0.095945664 -0.1609573
000040 d6 53 34 be 8d 3b e6 3d f7 ca 74 3c fc c8 9d 3d
       -0.17610106 0.11241827 0.014940969 0.0770435
000050 78 76 ac 3e 25 43 08 3f 34 ea 73 bf c5 44 93 be
       0.33684134 0.53227454 -0.9527924 -0.28763404
000060 ff 25 27 3e cf f9 56 be e6 fd 86 3d 8e ca bb 3b
       0.16323088 -0.20993732 0.06591396 0.0057309335
000070 74 9d 59 be f7 45 fc bc 8c 24 96 bd e4 0b c2 3c
       -0.2125147 -0.03079508 -0.073311895 0.02368731
000080 be 40 2f 3d 65 53 83 bd 7d aa 8d bc 32 53 ce be
       0.042786352 -0.064123906 -0.01729321 -0.40297848
000090 4f a4 22 be 35 5e 9f 3e 28 9f 5a 3e 6b a1 6f bd
       -0.15882991 0.31126562 0.21349776 -0.05850355
0000a0 20 18 90 3d 7b 49 38 bd d4 7b c2 bd 1e 8e f2 bc
       0.070358515 -0.04499195 -0.094962746 -0.029608782
0000b0 93 bb ae 3a bf 4b c1 bd ff 38 b2 3d 9f 08 3f 3e
       0.0013331048 -0.094382755 0.087022774 0.18655632
0000c0 dc 03 cb 3c 39 d3 8b be 39 29 3c bb 9e 5c 6b be
       0.024782114 -0.27309588 -0.0028711094 -0.2298455
0000d0 35 e2 22 be 5f cb 8a 3d 15 d2 7a 3d 6f bc 52 be
       -0.15906604 0.06777071 0.061235506 -0.20579694
0000e0 6a 58 14 3f 3e e3 05 3f 93 0a 1f bf 0d 0d ea be
       0.5794741 0.5229987 -0.6212551 -0.45713082
0000f0 e5 c1 8c bd 3a 40 8a be f8 b2 fc 3c 29 5d 5f 3b
       -0.0687292 -0.27002126 0.030847058 0.0034082627
000100 64 14 06 be fa f8 3d bd e1 93 fb bd a6 01 b5 3d
       -0.13093716 -0.04638002 -0.12284065 0.08838205
000110 6c 06 9d 3d bf 26 16 bd 8c 4a 1e 37 59 8b 33 b8
       0.076672405 -0.036658045 9.434891e-06 -4.2806703e-05
000120 c6 d2 10 b8 33 30 2d b8 2e 9e 9c b8 82 cd 1f b9
       -3.4528573e-05 -4.1291303e-05 -7.468123e-05 -0.00015239979
000130 ef 4b 57 b6 e9 80 3d 38 9c 6f 29 b7 6c 95 7b b8
       -3.2081696e-06 4.518117e-05 -1.0099171e-05 -5.9982223e-05
000140 69 3b 0a b8 44 99 70 b8 c6 04 09 b9 ac 5a 37 b7
       -3.2957094e-05 -5.73632e-05 -0.00013067116 -1.0928761e-05
000150 fe f5 95 38 e3 19 ca 38 54 b2 9c b7 eb 38 ec b8
       7.150693e-05 9.6369324e-05 -1.867969e-05 -0.00011263959
000160 67 03 fc b8 7a 8f f7 b8 e0 86 d7 b7 53 e0 ec 36
       -0.0001201693 -0.000118046024 -2.5692803e-05 7.059463e-06
000170 d9 2a c9 36 33 f4 08 36 69 fb b2 b8 53 3d 34 b8
       5.995255e-06 2.0407722e-06 -8.53453e-05 -4.2972457e-05
000180 45 d0 e3 b8 70 95 36 b7 2f 7f ba b7 e2 ce 9d b8
       -0.00010862997 -1.0882839e-05 -2.2232152e-05 -7.524878e-05
000190 26 ee b1 b7 22 34 c3 b7 e3 92 86 b8 04 68 ec b5
       -2.121094e-05 -2.3270088e-05 -6.416978e-05 -1.7613643e-06
0001a0 8c 03 ce b8 c2 ac 48 bd c2 11 a7 bd e2 82 62 3e
       -9.823506e-05 -0.04899288 -0.08157684 0.2212024
0001b0 2c 40 58 be be 49 43 3d 4c 7d a4 3d 60 a0 5f bd
       -0.2111823 0.047677748 0.08031711 -0.054596305
0001c0 88 bc 8b bc 98 5e a2 3d c4 e7 9f bd d2 89 04 3e
       -0.017057672 0.079281986 -0.07807878 0.129432
0001d0 bd 89 2a be f0 f3 09 3e 01 94 97 be cd f6 00 3e
       -0.16654105 0.13471961 -0.29605106 0.12594147
0001e0 6e e9 10 3e 83 4c 86 be 48 21 74 bd 62 d3 7f ba
       0.14151546 -0.2623025 -0.059602052 -0.00097589765
0001f0 37 de 5a bd b9 9c 0b 3e 61 8b 52 be dc 30 fb 3e
       -0.053434577 0.13634004 -0.20560981 0.49060714
000200 a4 f5 8b bf d0 2e 04 3f d8 71 b0 3b 9a ee d6 bd
       -1.0934339 0.5163393 0.005384665 -0.104947284
000210 18 b0 af 3d a3 6b 3a be 7a b9 b8 bd 41 e1 75 3d
       0.08578509 -0.18205123 -0.09019752 0.060029272
000220 16 92 2a be db 06 42 3e da a5 1d be ae c8 ea 3c
       -0.1665729 0.18947928 -0.15395299 0.028660145
000230 69 b8 60 3e 65 dd 9f be 91 5c 79 3e 5f 7c 6a bd
       0.21945347 -0.31223598 0.24351718 -0.057247516
000240 88 fd b1 bd cc 5d 4b 3d 04 a3 0c be d8 0f 2c 3e
       -0.086909354 0.04965 -0.1373406 0.16802919
000250 84 88 0b bd 54 97 9a bc a2 4a b4 be 9b 92 31 3f
       -0.03406574 -0.018870987 -0.3521319 0.6936433
000260 07 85 23 bf 84 5d b6 3e 73 49 7e be d3 bb c0 be
       -0.6387486 0.35618222 -0.24832706 -0.37643299
000270 dd d7 a1 3e 3f ad 41 be 00 26 8b bd 82 55 21 bd
       0.31610003 -0.18913744 -0.06794357 -0.039388187
000280 15 fa 84 bd 09 eb 2b 3c 5d ec af bd d6 f8 55 3d
       -0.06493012 0.0104930485 -0.085900046 0.05223926
000290 a6 28 5b 3d c1 ee 83 be 76 a6 5d 3e 62 a4 4b be
       0.053505562 -0.25768092 0.21645531 -0.19886926
0002a0 81 b7 0e be 7f 25 be bc b9 89 97 bd 86 cf d5 3c
       -0.13937189 -0.023211239 -0.073993154 0.026099931
0002b0 9c 78 ac bc b4 60 17 3d e5 f9 5c bd 75 e5 1c 3e
       -0.021053605 0.036957458 -0.053949255 0.15321906
0002c0 df 18 51 bd ff 88 9c be 22 56 f2 3e 36 22 27 be
       -0.05104911 -0.3057327 0.4733134 -0.16321644
0002d0 60 a0 2f 3a a3 54 e6 bb f2 fc 9a bd 64 43 ad 3d
       0.0006699618 -0.0070291325 -0.07567777 0.08460119
0002e0 81 38 d0 3a 6a f5 8a be 81 09 7b 3e b9 65 4f 3e
       0.001588598 -0.2714036 0.24515344 0.20253648
0002f0 3c cc 19 bf ec fe 03 3f 76 48 6d be bf 82 e7 bd
       -0.6007726 0.51560855 -0.23172173 -0.11304235
000300 3c 18 97 3e 64 9d b5 be e2 16 41 3d 51 61 5f b9
       0.29510677 -0.35471642 0.047140963 -0.0002130319
000310 4d 93 1b bd 00 30 81 3d 6b 20 4d bd 44 aa 8c bd
       -0.037982274 0.063079834 -0.050079744 -0.06868413
000320 16 f5 28 be 99 23 90 3d ee 22 67 3e 08 03 f2 be
       -0.16499743 0.0703804 0.22571918 -0.47267938
000330 06 65 3d 3d 60 8b 56 3e 39 9b 82 be 79 40 7e bd
       0.04623892 0.20951605 -0.2550905 -0.062073205
000340 d0 db 0e 3e 42 17 4c be ed 01 e1 b7 fc 5c 30 38
       0.1395104 -0.19930747 -2.6822987e-05 4.204827e-05
000350 11 a0 c4 37 b5 69 7c 38 37 38 71 38 32 ce 55 b8
       2.3439557e-05 6.017993e-05 5.751123e-05 -5.097519e-05
000360 d2 0c 89 b8 4a 94 e1 37 17 aa be b8 16 27 97 b6
       -6.535057e-05 2.6891143e-05 -9.091588e-05 -4.504701e-06
000370 f0 80 32 37 28 9c 5a 38 b9 bf bc 38 de 29 b0 b8
       1.0639647e-05 5.2120682e-05 9.00025e-05 -8.400132e-05
000380 b1 f2 99 b8 63 63 66 37 09 2f 92 38 e7 4b f7 b7
       -7.340813e-05 1.3732209e-05 6.9705835e-05 -2.948004e-05
000390 25 fb 45 38 b8 0e 3a 39 46 ac 50 b7 de 34 09 b9
       4.7202357e-05 0.00017743825 -1.2437877e-05 -0.00013085033
0003a0 0c c8 5f b7 4f 17 29 b9 cc 52 a3 38 eb ec c7 38
       -1.3338413e-05 -0.00016125779 7.787868e-05 9.533189e-05
0003b0 71 95 e8 37 47 c0 8a 38 84 0b 0f b8 64 7f 16 38
       2.7726144e-05 6.616167e-05 -3.410458e-05 3.588143e-05
0003c0 40 80 59 b8 5e 92 58 37 80 03 af 38 9d d8 de 38
       -5.1856274e-05 1.2908682e-05 8.345302e-05 0.00010626132
0003d0 0d 06 3c 38 ee a5 57 3d 52 1c 66 3e ba f0 5b be
       4.4828328e-05 0.052648477 0.22471741 -0.21478549
0003e0 65 f0 a2 be d2 06 a7 3e 0d 7e f1 bd e9 cf e3 3d
       -0.3182403 0.3262239 -0.117916204 0.1112364
0003f0 5c fd 75 3e 25 9b 23 be 90 48 96 bd 87 3b b1 be
       0.2402243 -0.15977152 -0.07338059 -0.34615728

sfeb.4.weight f4 [20]
000000 2d 5f 6e 3f c3 a0 53 3f a7 34 5a 38 c3 3c 3b 3f
       0.93113977 0.8266718 5.2024287e-05 0.7313959
000010 c9 b0 4f 3f 29 d8 5d 3f d9 23 08 b5 db 53 72 3f
       0.8112913 0.8665796 -5.0716113e-07 0.94659203
000020 1a 0f 13 b7 14 cd 81 3f 15 26 97 37 c3 8c 7a 3f
       -8.765399e-06 1.014071 1.8018336e-05 0.97871035
000030 6c 76 65 3f 0c 8e 6c 3f 70 78 ec 35 3e 1c 9d 3f
       0.8963382 0.92404246 1.7618422e-06 1.2274244
000040 8b f9 d1 35 3c 00 89 3f 70 d9 a4 3f 44 c7 59 36
       1.564434e-06 1.0703197 1.2878857 3.2451508e-06

sfeb.4.bias f4 [20]
000000 18 72 b1 bd 30 d1 1c 3c 1d 4a 1b b9 57 08 b7 bb
       -0.0866434 0.009571359 -0.00014809561 -0.005585711
000010 2a ed 7c bd 78 57 9d 3d 77 97 0f b9 35 ce f9 bb
       -0.061749615 0.07682699 -0.00013693968 -0.0076234587
000020 41 50 44 b9 2f 0d a8 3d cf a6 7c b9 58 cc ef bc
       -0.00018721914 0.082056396 -0.00024094734 -0.029272243
000030 fc a6 8e bd 5c 26 ec 3d c9 10 04 b9 a1 e3 07 be
       -0.069654435 0.11530754 -0.00012594754 -0.13270427
000040 4f b4 07 b9 8f 26 3a be 73 db d1 bd ee de 78 b9
       -0.00012941773 -0.18178771 -0.10246935 -0.00023734171

sfeb.4.running_mean f4 [20]
000000 02 e0 6f be 87 da e2 be 30 87 14 ba c5 19 ab be
       -0.23425296 -0.44307348 -0.00056658965 -0.33418098
000010 c1 ef c3 be 7e 24 b8 bd 43 aa 09 39 ec 24 f2 be
       -0.38268855 -0.08991335 0.00013128766 -0.47293794
000020 57 07 5b 39 44 97 bf be f3 21 5a ba f3 5f b7 bd
       0.00020888202 -0.37420094 -0.0008321099 -0.08953848
000030 36 3e 4f bf d5 cf 10 3f 5a 11 5f b9 79 bb 57 bf
       -0.809543 0.56567127 -0.00021273401 -0.84270436
000040 21 67 db b9 4d b0 9c 3e 46 fa 33 bf cd 0e 6e b9
       -0.00041847772 0.30603257 -0.7030376 -0.00022702962

sfeb.4.running_var f4 [20]
000000 31 2b 17 3f e3 f3 19 3f a5 e8 16 34 d0 6b 62 3f
       0.5905028 0.60137767 1.4054474e-07 0.8844576
000010 f4 70 5a 3f 21 9c 88 3f 23 de 89 33 69 73 da 3f
       0.853286 1.0672647 6.419966e-08 1.706647
000020 09 59 df 33 fd a7 ff 3f bd aa 30 34 10 3f 00 40
       1.0400442e-07 1.9973141 1.6453392e-07 2.003849
000030 f8 50 92 3f 4f f5 ca 3f 4e 69 b1 33 e4 7b 07 40
       1.143096 1.5856112 8.2613596e-08 2.1169367
000040 aa f0 33 34 56 f1 8b 3f e4 b3 bd 3f 1f c0 15 34
       1.6758227e-07 1.0933025 1.4820523 1.39466e-07

tfeb.0.weight f4 [10, 1, 3, 3]
000000 d0 66 9b be d9 f5 b5 be fc 77 d9 bd 42 f3 c7 be
       -0.30351877 -0.3553913 -0.10618588 -0.39052778
000010 71 18 2c bf 4c 52 66 3e dd a7 e0 bd 7f 78 54 be
       -0.67224795 0.22492331 -0.109695174 -0.2074909
000020 e5 23 5a 3d 90 4c 74 3a ce 61 ab ba eb bd 88 ba
       0.053256888 0.000931927 -0.0013075413 -0.0010432577
000030 d8 8b ae 3b 4f 9d 02 bb 21 60 29 bb 8b df 92 3b
       0.0053267293 -0.001993019 -0.002584465 0.004482215
000040 e9 73 6e b9 b2 62 87 b9 da 37 bf 38 57 66 e3 38
       -0.00022740629 -0.0002582274 9.117993e-05 0.00010843266
000050 e5 bd e5 b7 25 23 c4 b8 67 5e 34 39 93 b4 b0 39
       -2.7387354e-05 -9.3525545e-05 0.00017201305 0.00033703874
000060 1f b1 c1 38 f6 b3 f7 b6 bb 37 c8 38 47 88 83 be
       9.2359485e-05 -7.382124e-06 9.547124e-05 -0.2568991
000070 ce 4a c8 bd 22 08 06 be 85 fa 75 bf fc 96 10 3f
       -0.09779893 -0.1308904 -0.9608539 0.56480384
000080 b9 eb 00 3e 20 6e 0d bf 7b 79 21 3f 38 61 7b 3d
       0.12589921 -0.5524616 0.6307599 0.061372012
000090 44 97 46 3d bb bd 6b be 9d c9 aa bc ce af 4c bf
       0.048484102 -0.23021595 -0.02084809 -0.79955757
0000a0 a2 e8 ec 3f 59 84 ac bf 00 de 5f 3d 3c e9 3f 3e
       1.8508494 -1.3477889 0.054655075 0.18741316
0000b0 a4 44 c4 be 32 98 2e be b9 d3 0f be 21 57 8f be
       -0.3833362 -0.17050245 -0.1404561 -0.27996162
0000c0 95 78 db 3d c8 82 95 3e a3 f0 cf 3e f1 4d fd 3d
       0.107163586 0.2920134 0.4061328 0.12368382
0000d0 30 90 b3 3e 11 89 b7 3e c4 b0 10 bc b7 d0 66 3e
       0.35070944 0.3584676 -0.008831207 0.22540556
0000e0 78 da 61 bd 8a 51 14 3e a0 98 bb 3d 91 87 22 bc
       -0.05513999 0.1448423 0.0915997 -0.009920017
0000f0 37 0a 4a 3e 6e 66 ed 3c c8 0d 49 be 3e f9 4e bf
       0.19730459 0.028979506 -0.19634163 -0.80849063
000100 62 5a d9 3e 7d 16 9b 3e 43 bb 24 bf c6 6f d0 bd
       0.4245177 0.30290595 -0.6434824 -0.10177569
000110 37 57 4c 3e 42 08 d7 be 8c 72 f3 3d f6 6a 6f 3c
       0.19955145 -0.41998488 0.118870825 0.014612904
000120 cb a4 13 3f 64 b7 ca be 08 ae f4 be 81 18 06 3f
       0.5767333 -0.3959304 -0.47789025 0.5238114
000130 1f fc cb be 03 04 1b bf 42 1a cc 3e f7 e5 5f be
       -0.3984079 -0.60552996 0.39863783 -0.21865068
000140 a1 82 89 be fe 91 82 3d 84 b4 90 3d 11 37 47 be
       -0.26857474 0.06375502 0.070656806 -0.194546
000150 25 9b fd 3e 09 75 0a 3f c4 de 9a 3d 58 65 ce bd
       0.49532428 0.5408483 0.075620204 -0.100779235
000160 92 86 41 3e 80 5c 99 be
       0.18898991 -0.29953384

tfeb.1.weight f4 [10]
000000 3a 9b 58 3f 82 4b 38 b7 05 32 55 b6 e1 c2 25 3f
       0.84611857 -1.0984835e-05 -3.1768589e-06 0.64750487
000010 f6 e3 16 3f 30 d6 dc 3e 44 54 a6 3e 10 f5 12 3f
       0.5894159 0.43132162 0.32486165 0.57405186
000020 be 8e 40 3f 7a 55 ba 3e
       0.7521781 0.36393338

tfeb.1.bias f4 [10]
000000 bf 5b 92 bd 83 3a b4 ba 55 13 0a b9 3e 60 25 be
       -0.071464054 -0.0013750348 -0.00013167907 -0.16149995
000010 0e f4 9f 3d 00 b4 89 3e 9c 78 5d bf fe 6e c6 3d
       0.078102216 0.26895142 -0.8651216 0.09689139
000020 3c 5a 31 be f2 5f 88 3e
       -0.17319578 0.266357

tfeb.1.running_mean f4 [10]
000000 16 f5 89 bf ea 71 e7 3a ab b2 e6 39 3c 1b b9 be
       -1.0777919 0.001765785 0.00044002137 -0.3615359
000010 08 c7 b7 be 2f 8c 13 3f 32 d7 78 3e f8 46 05 bf
       -0.35894036 0.5763578 0.2430084 -0.52061415
000020 9e 49 00 bf 0d 5d ff 3e
       -0.5011233 0.4987568

tfeb.1.running_var f4 [10]
000000 f1 96 15 40 04 b5 e3 37 d9 4b d5 34 5f 22 30 3f
       2.3373377 2.71448e-05 3.9729528e-07 0.68802446
000010 3b 7e 87 3f 10 f5 bb 3f 41 f6 13 3e 9d c1 67 3f
       1.0585397 1.4684162 0.14449407 0.90529805
000020 3c ef 6f 3f 46 ac b1 3f
       0.9372442 1.3880699

tfeb.4.weight f4 [14, 10, 3, 3]
000000 7f 7d 25 be 69 03 aa 3e 5d 50 fb 3c aa 0f 7e 3d
       -0.16161154 0.33205727 0.030677969 0.062026657
000010 6b 4d 23 3f ab 75 a7 3e d4 24 05 be 04 b7 98 3d
       0.63790005 0.3270696 -0.1300233 0.074567825
000020 66 26 04 bd 91 14 4a b6 7b 9d 77 ba 00 ae 12 ba
       -0.032263182 -3.0112317e-06 -0.00094457687 -0.0005595386
000030 52 73 dc 38 64 68 4f ba 23 88 b9 ba 9e 61 b3 b8
       0.000105118976 -0.0007911979 -0.0014154952 -8.553568e-05
000040 94 fe 17 3a f4 22 cd b8 6f 3a aa 37 9f e4 f8 37
       0.0005798128 -9.781672e-05 2.029279e-05 2.9670364e-05
000050 06 01 3b b7 ef 0b 92 37 83 9a b8 b7 31 9a 58 b8
       -1.1146307e-05 1.7410113e-05 -2.200646e-05 -5.1642015e-05
000060 a3 79 80 38 f6 8f 2a b6 99 70 a5 b8 fe 0b 8d be
       6.126172e-05 -2.541577e-06 -7.888786e-05 -0.27548212
000070 9d c4 f7 bd 60 99 ab bd bf 13 a8 3b 75 60 63 bd
       -0.12098048 -0.08378863 0.005129307 -0.05551191
000080 e0 f9 c6 3d 61 c2 bd 3d 0b 11 8e 3d 02 c9 4a ba
       0.097156286 0.092655905 0.069368444 -0.0007735641
000090 78 22 28 3e c3 7c 0c be a2 15 01 bd 55 c3 0b 3e
       0.16419399 -0.13719468 -0.03151477 0.13648732
0000a0 6c 37 6b be a6 e6 df bc b4 14 79 bd 0f f9 8f bc
       -0.2297036 -0.027331661 -0.06081076 -0.017574815
0000b0 3a fb 2e ba 28 94 ff bd 7b 68 45 be c6 ba c6 bd
       -0.0006675009 -0.124794304 -0.19278137 -0.09703593
0000c0 ea 17 ed bc 8b 30 3a be 14 c0 02 bd 5e fb bb 3d
       -0.028942067 -0.1818258 -0.03192146 0.09178804
0000d0 0b ff e6 3d be 89 cc 3c 0f b0 20 be 79 3d ee 3d
       0.11279114 0.024968024 -0.15692161 0.11632819
0000e0 16 1c 92 3d 5b 9d 08 be 6c 4d 24 3e 83 08 d7 3d
       0.07134263 -0.13341276 0.16045159 0.1049967
0000f0 c8 39 79 be 01 90 3e 3c 45 b5 f0 3c f3 ad 61 bd
       -0.24338448 0.011631013 0.029383311 -0.05509753
000100 82 8e 6d 3e 5f 9a 46 bd d3 34 f5 bd 65 e8 3d 3e
       0.23198894 -0.048487063 -0.11972966 0.18545683
000110 1c b0 3d 3e 06 85 ac bd 4d 16 18 be 9f 00 e7 bd
       0.18524212 -0.0842381 -0.14852257 -0.11279415
000120 b4 d6 7e bd 5f f1 cd 3b 5c 25 f6 bc e1 46 87 3e
       -0.062216476 0.006284877 -0.030047111 0.26421264
000130 a6 3c f8 3d 7b 88 4e be 3e 73 06 bd 12 33 4c 3d
       0.12120943 -0.2016925 -0.032824747 0.049853392
000140 cd 11 ba bd cd e0 59 3e 92 57 a1 bd dc d0 c6 bc
       -0.090854265 0.21277161 -0.07878031 -0.024269514
000150 3f aa de 3d 8f a8 48 be e9 37 4d bd a9 17 97 3d
       0.108723156 -0.1959555 -0.05010215 0.0737756
000160 1c ef 2d 3d 90 3b 6b bd 41 f4 a7 3d 2c d4 35 bd
       0.04246436 -0.05742985 0.082008846 -0.044391796
000170 96 b5 fe bc 8c 03 f8 bb 7d 3d 1f be 10 c7 d6 bd
       -0.031092446 -0.007568782 -0.155508 -0.10487187
000180 49 99 c9 3c d1 1b ca bd e2 76 29 bd 49 87 70 b9
       0.024609225 -0.09868587 -0.04137314 -0.00022938581
000190 1e 5a 38 3a 9f d1 6d ba 8d 79 e7 39 98 9c 03 3b
       0.00070324715 -0.00090720685 0.00044150316 0.002008235
0001a0 5f 04 39 37 31 f5 0d ba f6 42 8e 3a 49 8d 2a 39
       1.1027877e-05 -0.00054152595 0.0010853696 0.00016265096
0001b0 3e 67 2b b8 ca 73 9d b6 52 53 57 b8 bb cd 4c 37
       -4.086573e-05 -4.6924442e-06 -5.1337593e-05 1.2207248e-05
0001c0 79 ec 65 b8 b7 79 6a b8 d7 e9 e6 37 ce 2d 46 b6
       -5.4818087e-05 -5.5903303e-05 2.7527027e-05 -2.953096e-06
0001d0 8a f7 11 b6 3f 88 91 3c ca cd ab 3d a0 0d cf 3d
       -2.175077e-06 0.017765163 0.083888605 0.10110021
0001e0 5f 61 a5 3d 6c 14 05 3e 6b a5 76 3d 91 ba 96 bc
       0.08075213 0.12996072 0.06021635 -0.018399509
0001f0 33 1e 8a 3d ca c6 7f 3d 73 e6 1a 3e ac 27 22 3e
       0.06744041 0.06244544 0.15126972 0.15835446
000200 41 a4 64 bd 93 3f 8d 3e dc f8 d3 3e cc 15 36 3e
       -0.055820707 0.27587566 0.41400802 0.17781752
000210 bb ae 0a 3d d2 a9 11 3e 11 68 d5 3d bb 72 7f bd
       0.033858042 0.14224938 0.1042024 -0.062365275
000220 38 13 b1 bd f7 ca 87 bd 8b 3c 75 3e 1d 65 5e 3e
       -0.08646244 -0.06630509 0.23948877 0.21718259
000230 0c fd 0e 3d d4 73 4c 3c f9 f7 f5 3c b7 f3 14 bd
       0.034909293 0.012478787 0.03002547 -0.036365237
000240 d5 95 88 3b 6c d8 02 bd fd 3a 67 bc 8f 33 3b bd
       0.004168252 -0.031944677 -0.014113185 -0.045703467
000250 ba af d6 bd ba 90 b3 bd 18 88 0b bd ad 35 82 bd
       -0.10482736 -0.08767839 -0.034065336 -0.06357894
000260 ee bc 0f bd cb d8 00 3d af 5c 81 3d 8b 6f 16 3e
       -0.035092287 0.03145675 0.06316506 0.14690988
000270 ec 9b 77 bd 9b d8 7f bd b1 0d f7 3a 72 d2 d6 3c
       -0.060451433 -0.06246243 0.0018848685 0.026223395
000280 b1 80 66 3d 2e 19 11 3e c9 23 ac bd 37 8b 11 3d
       0.056275073 0.14169762 -0.08405263 0.035533156
000290 9e 25 1e be 6f 1e 3d be 6a 75 c2 3d 62 f9 1a be
       -0.15444037 -0.1846864 0.09495051 -0.15134194
0002a0 cd eb 46 be 85 ae c6 3d d7 56 5b bd 9b 95 06 be
       -0.19425888 0.09701256 -0.053549614 -0.13143007
0002b0 c3 21 d2 bc fd 47 20 be 12 1f fd 3d bb 97 83 3e
       -0.025650864 -0.15652461 0.12359442 0.257017
0002c0 23 f8 83 bb 4c 37 65 3c 24 13 fd 3d 67 2e 53 bd
       -0.004027383 0.013990235 0.123571664 -0.051557925
0002d0 92 2d 10 bc 83 88 51 bd 18 a1 a7 bd 45 c9 28 3e
       -0.008799927 -0.05115558 -0.08185023 0.16483028
0002e0 17 48 b9 bd 74 44 7a be 50 df 14 3e 2d 51 a3 bd
       -0.09046953 -0.24440175 0.14538312 -0.079744674
0002f0 a5 a4 53 be 3d fb 50 ba 14 64 ed 38 e0 87 b2 3a
       -0.20668276 -0.0007972008 0.00011319682 0.0013620816
000300 95 04 87 ba c3 ee 03 ba c8 6a 03 3a 03 c4 b9 b9
       -0.0010301048 -0.00050328317 0.0005013165 -0.0003543199
000310 fb 80 e0 b9 7e 68 b3 b9 32 ea 5d b8 a1 05 29 b8
       -0.00042820707 -0.00034219393 -5.2908617e-05 -4.0297982e-05
000320 e7 25 43 b7 27 83 0a b7 ea b3 af b8 d4 14 3b b8
       -1.1631731e-05 -8.255977e-06 -8.378162e-05 -4.4603672e-05
000330 0a 32 64 b8 b9 e3 c8 37 0f 0b 1c 38 ce ba 0b 3e
       -5.440604e-05 2.39479e-05 3.7203597e-05 0.13645479
000340 29 ea b4 3d ec 3d 95 3c 80 24 5a 3d 39 ac a7 bd
       0.08833725 0.018218003 0.053257465 -0.08187146
000350 22 44 6d 3d 8b 60 f5 3d cf 88 24 be 83 5c 59 3d
       0.057926305 0.11981305 -0.16067813 0.05306674
000360 a9 cd 6b be c5 2b 43 3e a4 9d 9f bd 4e 17 f2 3d
       -0.23027672 0.19059666 -0.077937394 0.11820851
000370 71 f4 8d bb 0f 77 e4 3d a0 3f 3e 3e 39 a5 90 3d
       -0.004332118 0.11155521 0.18578959 0.07062764
000380 b7 7f ba 3d 9e cb 58 be 2a bc 1f 3e 67 37 f4 3e
       0.09106391 -0.21171424 0.15599123 0.4769852
000390 29 d7 0e bf 43 0c 24 be 8c 8a e9 3e 88 4d 82 be
       -0.5579706 -0.16020302 0.45613515 -0.25449777
0003a0 20 03 fa bd 10 a4 7b 3e 11 ec de 3c c6 08 67 bd
       -0.12207627 0.24574304 0.027212175 -0.05640485
0003b0 91 51 f2 bd 72 2e 12 3c 2c fa a9 bd d2 c6 35 be
       -0.11831964 0.008922206 -0.082996696 -0.17751625
0003c0 96 c7 6d bc 29 38 79 bd 15 aa 1d be e1 2d ee 3d
       -0.014512917 -0.060844574 -0.15396912 0.116298445
0003d0 b6 f2 47 be 28 e6 05 bd 5f 3c d9 bc 0f 4e 84 bd
       -0.1952618 -0.032690197 -0.026518045 -0.06460201
0003e0 7e 96 a0 3c 21 9c 80 3d 4b f3 45 be cc dc 8a 3d
       0.01960301 0.06279779 -0.1933109 0.06780395
0003f0 01 17 40 bc c3 42 f0 bc 7d 5f b2 bd dc 7f db bd
       -0.011724235 -0.02932871 -0.08709619 -0.107177466

tfeb.5.weight f4 [14]
000000 5c 00 64 3f 61 c8 64 3e 25 b7 b3 3e 39 35 25 3f
       0.8906305 0.22342063 0.35100666 0.64534336
000010 d3 9b a0 3e 2f 17 26 3f fb 97 fe 3e b6 5b e9 3e
       0.31368884 0.64879125 0.49725327 0.45577782
000020 9a 72 fc 3e 1e c4 b9 3e 8a b8 01 3f 53 ee bc 3e
       0.49306184 0.36282438 0.5067221 0.36900577
000030 d6 49 82 3f e5 97 71 3f
       1.0178783 0.943724

tfeb.5.bias f4 [14]
000000 ed 85 c0 be 10 f0 42 3e 62 0f e1 3e 77 b1 c4 3c
       -0.37602177 0.19036889 0.4395705 0.024010403
000010 dd 3c 99 3e 2d c5 8c be 8f f6 37 3e 3e 41 9f 3e
       0.29929247 -0.27494183 0.17965148 0.31104463
000020 f7 1d e4 3e f9 10 91 3e 8d e6 3c 3e 6b 3e b1 3e
       0.4455411 0.28333262 0.18447323 0.34617934
000030 3a 8d 7f be c3 7b 1b be
       -0.24956217 -0.1518393

tfeb.5.running_mean f4 [14]
000000 3b de f8 bb 0b 54 30 3f 58 01 a5 be 02 e5 30 bf
       -0.0075948513 0.6887824 -0.32227588 -0.6909944
000010 08 1b 69 be 45 9f c7 3c 8d 15 79 be 9d bf f8 be
       -0.22764218 0.024367938 -0.24324627 -0.4858369
000020 8b 02 ec be 77 21 b8 be cf 31 49 bf c0 c6 6c bd
       -0.4609569 -0.35963032 -0.78591627 -0.05780673
000030 ea 8d 82 bf 8c 70 1a bf
       -1.0199559 -0.6032798

tfeb.5.running_var f4 [14]
000000 dd a6 a6 3e 0a df ef 3e 70 b2 9a 3e 64 e7 d3 3e
       0.32549182 0.46849853 0.30214262 0.41387475
000010 e4 10 2d 3f 85 a8 3b 3e e4 01 c3 3e 4a aa 12 3f
       0.676039 0.18326004 0.3808738 0.5729109
000020 bd 36 fc 3e 69 cb df 3e 68 99 18 3f 37 3d 82 3e
       0.49260512 0.43709877 0.5960908 0.25437328
000030 e1 99 5c 3f c2 6a 2d 3f
       0.861723 0.67741024

tfeb.7.weight f4 [22, 14, 3, 3]
000000 48 59 55 bd 2b c4 0e 3d ce a9 8e 3d 56 0d 08 3e
       -0.0520871 0.03485505 0.069659814 0.13286337
000010 0e 3d 39 3e 1f 84 45 3e ec 77 de bb be 94 8a 3d
       0.18089697 0.19288681 -0.006789198 0.067666516
000020 ec 08 30 3d 53 0f 8d 3b 86 8c 11 3c 1a 54 e0 3c
       0.04297726 0.0043048053 0.008883601 0.027383853
000030 d9 fc 26 bd 85 f8 f2 bc f9 56 4f bd b7 29 91 bd
       -0.040768478 -0.029659519 -0.050620053 -0.070880346
000040 a7 65 63 bd e5 bc d2 bd 4c 90 8f 3c e8 3a 39 bd
       -0.055516865 -0.10289935 0.01752486 -0.045222193
000050 47 92 44 3d 5d 4f fd bc 47 b4 aa bd bb d7 81 3c
       0.047991063 -0.030921632 -0.083351664 0.015849939
000060 98 5c 6d 3d 1d ab 04 be e5 c6 3a bd 5b c3 3f bd
       0.057949632 -0.129559 -0.045599837 -0.046817165
000070 25 67 5f bd f6 a6 e6 3d 89 93 bc 3c 26 b6 26 be
       -0.054541726 0.11262314 0.023019569 -0.16280422
000080 41 b6 be 3d 6b 76 21 3e c3 b4 47 bd 29 02 48 3e
       0.09312106 0.15767829 -0.048756372 0.19532074
000090 0f 9b 48 bd 17 3a 14 bd f7 c4 92 bd 05 78 04 be
       -0.048976 -0.03618821 -0.07166474 -0.12936409
0000a0 c6 ea 14 bc af 38 64 bd d1 75 9e bd ba 7f 8e 3d
       -0.0090891775 -0.05571812 -0.077373154 0.06957956
0000b0 d5 e9 f2 3b 8e 3b 9c bd 57 7a 04 bd 5f d5 fa 3a
       0.007413129 -0.07628547 -0.032343235 0.0019137076
0000c0 f3 f0 68 3d 08 2e 87 bc 92 45 82 3d 03 d7 87 bd
       0.056870412 -0.016501442 0.06360926 -0.06632807
0000d0 59 ee 83 bd 40 f3 53 bd c8 94 e5 3d 84 fb 0e be
       -0.064419456 -0.051745653 0.112100184 -0.13963133
0000e0 cd cc 45 3e 63 ee 59 bd f5 4a 7b be f6 f2 ef 3d
       0.19316407 -0.05320586 -0.24540313 0.11716263
0000f0 39 16 62 bc ef 0a 00 be 0d a5 05 bd 2c 9f 0f 3e
       -0.013799244 -0.12504171 -0.032628108 0.14025563
000100 fd 94 e3 bd cd 83 78 3d 1d c7 fb 3d 70 b6 b5 bd
       -0.11112402 0.06067257 0.12293837 -0.08872688
000110 c0 38 c6 3c 24 5a 15 3e 74 85 e9 bd c3 4e c8 3c
       0.024196982 0.14585167 -0.11402407 0.024451619
000120 aa 8f b2 3c 7a 39 a7 ba 8f bd 95 bd 9e c8 eb 3d
       0.02179702 -0.0012758218 -0.07311546 0.11512874
000130 56 e6 88 bd c1 51 28 bd 8d 4b 78 3d 9b 73 c2 bd
       -0.06684558 -0.04109359 0.060618926 -0.09494706
000140 a5 9b 59 3d 50 74 07 bd 68 10 c9 3d 27 dd 51 be
       0.05312695 -0.03306991 0.09817582 -0.20494519
000150 ab f6 74 bd 11 b4 e0 3d 2c c2 99 be d5 a5 5c 3d
       -0.059805553 0.10971845 -0.30030954 0.053869087
000160 38 8b 84 3e c4 e1 1e be 32 be 32 3d c0 4a 9e bd
       0.25887465 -0.1551581 0.043638416 -0.07729101
000170 09 bb a6 bd 3f c7 4a 3d 24 b9 31 38 dd 98 99 bd
       -0.08141143 0.049506422 4.2372514e-05 -0.074998595
000180 e0 91 d7 ba 9b 27 16 3d 44 95 2f bd 74 95 10 bd
       -0.0016446672 0.036658864 -0.04286696 -0.03529878
000190 fe b0 5f 3e 12 fa 0e be 64 e1 9a bd 11 14 15 3e
       0.21844861 -0.13962582 -0.07562521 0.14558436
0001a0 91 96 bd bd 58 14 f4 bc 1e 24 e2 3d 75 8e f9 bd
       -0.09257234 -0.029794857 0.11042045 -0.12185375
0001b0 d5 44 4f ba 72 b9 47 bd 7f f2 9f bb 6b 8d 98 3d
       -0.000790668 -0.04876084 -0.0048812027 0.07448848
0001c0 38 1f a5 bd a3 6a ad bd 0c 46 8b 3d e6 1f 25 bd
       -0.08062595 -0.08467605 0.0680047 -0.040313624
0001d0 66 db fb bb 54 b8 ab bc 58 60 82 3e b0 90 5d be
       -0.0076860664 -0.020961918 0.2546413 -0.21637225
0001e0 a6 3c cb bd cb bf 3d 3e f3 61 51 bd d6 43 82 bc
       -0.09923677 0.18530194 -0.051118802 -0.015901487
0001f0 14 b1 46 3d 2d 7f 27 bd f1 01 57 3d 16 97 69 3c
       0.04850872 -0.04089277 0.052492086 0.014257213
000200 b8 34 fc 3b ca 6a c3 3d 72 d5 62 3e 78 11 c7 3d
       0.0076967143 0.09541853 0.22151735 0.09720129
000210 02 da 46 bd da f5 5f 3e 45 83 1f 3e 22 6c fd bc
       -0.048547752 0.21871129 0.15577419 -0.03093535
000220 ea a3 08 3b 48 a8 f7 bc 97 0a 16 bd 3c 1f 6e bd
       0.0020849654 -0.03023161 -0.036631193 -0.058135256
000230 5d 7e b8 bd 53 dd 12 bd 46 5f 80 bd 0d f2 82 bc
       -0.09008477 -0.035855602 -0.06268172 -0.01598456
000240 ea ca dc bd db 60 49 3a a1 c7 6e 3d 9f a2 e4 bd
       -0.1078089 0.0007681974 0.05829585 -0.1116383
000250 6f 9d be bd 75 5f a2 bd 04 f1 c4 3c e2 3d 94 bc
       -0.09307372 -0.07928363 0.024040706 -0.018095914
000260 d0 de 78 bd 07 f1 e2 bd e2 a5 0e 3e a2 85 cb 3d
       -0.060759366 -0.110811286 0.13930467 0.09937598
000270 06 b9 33 bd a9 7a c3 bd 1d a5 97 bc 93 8b 55 3c
       -0.043877624 -0.0954488 -0.01851135 0.013033765
000280 ad 41 26 be 72 69 52 bd b3 77 fb 3c 16 65 25 bd
       -0.16235991 -0.05137009 0.030696725 -0.040379606
000290 07 e9 c0 3c 02 b4 a5 bc 44 93 14 bd 8a 4f 8c bc
       0.023548616 -0.020227436 -0.036273256 -0.01712777
0002a0 63 6d 47 bd 81 01 39 bd 3d 8d 1f bd 4e 10 0f bc
       -0.048688304 -0.04516745 -0.038953055 -0.008731915
0002b0 d4 91 29 3e d9 61 20 3e ef 12 eb 3c 83 34 d0 3d
       0.16559535 0.15662326 0.028695552 0.10166266
0002c0 31 7d 4e 3e b1 49 b7 bb 6c a3 ff 3b d4 10 90 bb
       0.20164944 -0.0055935015 0.007801464 -0.0043965373
0002d0 e9 a0 df 3d 00 81 cf 3c d7 62 bf bd 0a bb ac bd
       0.10919363 0.025330067 -0.09345024 -0.08434112
0002e0 7e d5 d3 bc 03 03 f8 3c 88 54 95 bd 16 32 b6 bc
       -0.025858637 0.030274874 -0.07291514 -0.02224068
0002f0 bd 9a f7 3d 30 8b 28 3d 8b ef 12 3d 8a 4e 2f 3d
       0.12090061 0.041148365 0.035872977 0.04279951
000300 16 d1 4e bd 3f f0 07 be 2b 8b 43 bd 24 52 f0 bc
       -0.05049237 -0.1327524 -0.047740143 -0.029336043
000310 7c 77 e2 bd 53 56 f0 bc b9 d5 15 3d cc 59 a3 3c
       -0.11057946 -0.029338038 0.036580775 0.01994028
000320 5c 23 ea bc c5 84 bd bd f7 4b 8c bd fb 20 28 be
       -0.028581314 -0.092538394 -0.06850427 -0.16418831
000330 4f 9f 2e 3d 09 a2 63 3d c4 48 67 bd 13 42 9a 3d
       0.042632397 0.05557445 -0.05646588 0.07532134
000340 52 55 0c bd 14 6c fb 3d b1 9b c6 bc 26 14 8c bd
       -0.034261055 0.12276474 -0.024244161 -0.068397805
000350 a2 a1 32 bd 3c 12 fe 3c 4f c1 3d bd cb 89 62 bb
       -0.043611176 0.031014554 -0.04632693 -0.0034566994
000360 d1 99 1f bd 7e 14 ee bc b3 7e 1a bc 8a 67 48 3c
       -0.03896505 -0.029062506 -0.0094296215 0.012231717
000370 79 16 17 bd d3 43 d2 3c a1 40 8d 3d 0c 6a 40 bb
       -0.036886666 0.025667107 0.068970926 -0.0029360084
000380 d8 d1 e3 3d 8c 21 1e 3b 6d eb a8 bd ba 63 8b bd
       0.11124009 0.0024128882 -0.08248029 -0.06806131
000390 6f bd d6 bd 63 13 07 bd c4 14 8f bd de ff af bd
       -0.1048535 -0.032977473 -0.069863826 -0.08593725
0003a0 bd 40 14 3d 82 85 08 3e 5b a1 16 bd 0d d1 f6 3d
       0.03619455 0.13332179 -0.036774974 0.12051592
0003b0 c2 67 05 3e 40 cf a0 3d b4 96 e8 3d 21 ed 92 3e
       0.13027862 0.0785203 0.11356869 0.2869654
0003c0 b8 2d 50 be a1 15 0a be 28 dd 8c 3c ca e9 3d 3d
       -0.2032994 -0.13484813 0.0171953 0.046365537
0003d0 71 c3 14 be 65 86 63 bc 38 40 b5 bc 96 bc 0e bc
       -0.1452768 -0.013887023 -0.022125348 -0.008711955
0003e0 15 44 9d bc 48 dd 86 bd 29 44 99 3d 05 3b 2a 3d
       -0.019197503 -0.06585175 0.07483704 0.04156019
0003f0 35 74 96 bd 1e c4 af bc b9 10 c6 bc e9 60 bb 3d
       -0.073463835 -0.02145582 -0.024177896 0.091493435

tfeb.8.weight f4 [22]
000000 f6 3b 02 3f 12 6e 14 3f 9b e1 de 3e 79 e8 01 3f
       0.50872743 0.57980454 0.43531498 0.5074535
000010 c0 e5 02 3f c5 b3 be 3e 9c 42 9c 3e ad 32 08 3f
       0.5113182 0.37246528 0.3051957 0.53202325
000020 6d 93 16 3f 50 b6 14 3f 0b c8 a9 3e 92 be 1e 3f
       0.58818704 0.58090687 0.33160433 0.6200954
000030 f4 2d ca 3e b9 65 99 3e d9 5d d1 3e 41 f3 2f 3f
       0.39488184 0.2996042 0.40891913 0.6873055
000040 23 05 c0 3e 91 50 d0 3e c4 75 0c 3f 07 75 bd 3e
       0.3750392 0.40686467 0.54867196 0.37003347
000050 fc c2 f5 3e ee e9 18 3f
       0.48000324 0.5973195

tfeb.8.bias f4 [22]
000000 89 f8 18 be 35 fb d2 be 54 57 a0 3e 60 2e 1a be
       -0.14938559 -0.4120728 0.31316626 -0.15056753
000010 6a 94 cf bd 7c d8 66 3e e2 09 b2 3e 3d 89 9b bd
       -0.101357296 0.2254352 0.34773165 -0.075945355
000020 7d aa b4 3d 64 4a 96 3d c1 ec 46 be c8 54 a6 bc
       0.088215806 0.07338408 -0.19426252 -0.020304099
000030 34 6e 40 3e 40 70 7f 3e 17 9d 26 3e 9d 5c 77 be
       0.18792039 0.24945164 0.16270863 -0.24156423
000040 ce 07 aa 3e 3f d2 70 3d 97 7f 80 be 9d 20 bf 3d
       0.3320908 0.058794256 -0.25097343 0.09332392
000050 d7 2c 3c bd cd 98 35 be
       -0.0459412 -0.1773407

tfeb.8.running_mean f4 [22]
000000 4a b5 89 be 33 4e ff be fa d8 12 bf 49 16 0e bf
       -0.26896125 -0.4986435 -0.5736233 -0.55502754
000010 3f 9a 88 3d 42 43 54 3f 3f f9 16 bf 31 ef 81 bf
       0.06670045 0.8291513 -0.5897407 -1.015112
000020 2b a4 34 bf e0 c6 29 bf 4b 3e 15 bf 21 b9 10 bf
       -0.70563 -0.66319084 -0.58298177 -0.56532484
000030 f1 f9 09 be bf 86 96 3c 1e e0 20 3d d0 de e4 be
       -0.13474251 0.018374799 0.039276235 -0.44701242
000040 21 81 1b bd 0c cc 47 bf 56 72 c8 be e1 3b 0c bd
       -0.037964944 -0.78045726 -0.3914973 -0.034236792
000050 c0 24 ae 3d 71 17 3a bf
       0.08503103 -0.7269202

tfeb.8.running_var f4 [22]
000000 0b 1e 12 3e 4d 18 d0 3d a4 d9 4a 3e 94 29 1b 3e
       0.14269273 0.10160885 0.19809586 0.1515258
000010 ab e9 05 3e f3 47 ba 3e 1a 44 57 3e 9d 2c 2d 3e
       0.13077419 0.36383018 0.21022072 0.1691155
000020 56 1c ca 3e 26 64 dc 3e 82 9b 66 3d 98 01 69 3e
       0.39474744 0.43045157 0.056300648 0.22754514
000030 4b 4f 22 3e 6e 64 2d 3e d4 d5 20 3e c1 44 0a 3e
       0.1585056 0.16932842 0.15706569 0.1350279
000040 b0 27 b3 3e 06 ce 18 3e 8c 94 35 3e 27 36 ff 3d
       0.34991217 0.14922342 0.17732447 0.124615006
000050 8c 6d 8b 3e 97 43 87 3e
       0.27232015 0.26418754

tfeb.11.weight f4 [31, 22, 3, 3]
000000 90 fd 01 3c 41 19 44 3d 3b 6c b5 bd 86 3f 6b bc
       0.007933989 0.047875647 -0.08858534 -0.014358407
000010 44 31 3b 3d 93 9f 1a bd 03 68 94 bd ca 17 02 bd
       0.04570128 -0.037749838 -0.07246401 -0.03176097
000020 d0 3a db 3c 2e 80 4a 3d cd df cb 3b e6 13 c1 bc
       0.026761442 0.049438648 0.0062217475 -0.023569059
000030 63 33 68 bc 26 de b6 bc 33 2c c9 3b 34 ea 13 bd
       -0.014172408 -0.022322726 0.006139302 -0.036112025
000040 35 0c b9 bd 6a 60 91 3c 03 d4 e3 bc 5e 71 4b bd
       -0.090355314 0.01774617 -0.027811056 -0.049668662
000050 3d 6e 52 bd e8 a7 ab 3d 76 0e 06 3e 99 3c aa 3d
       -0.051374663 0.08381635 0.13091454 0.08312339
000060 8d ad 0b be fb 4b ba bb fc f2 d3 bc b8 83 15 3d
       -0.13640423 -0.005685327 -0.0258727 0.03650257
000070 7c ef 04 3e 49 bd ae 3c ff 09 b9 bd 2b c2 78 3e
       0.12981981 0.021330493 -0.0903511 0.24292819
000080 e6 87 0b 3d 51 d9 23 be 5f cb 19 bd 58 1a 04 be
       0.03406515 -0.16000868 -0.037547465 -0.12900674
000090 4c 24 be 3c 67 fa 28 bd e7 5b 5e 3d 49 38 2a 3c
       0.023210667 -0.041254427 0.054286864 0.010389396
0000a0 c7 ca 11 bc a3 16 60 bd 68 35 51 bd b8 1e 79 bd
       -0.008898444 -0.054709088 -0.051076323 -0.06082031
0000b0 3e b0 a8 bd fe 39 3b bd 62 aa f0 bd 51 95 a2 bd
       -0.082367405 -0.045709603 -0.11751248 -0.07938636
0000c0 4c c1 0c 3d 95 30 38 be 06 30 54 be 12 8f 29 3d
       0.03436403 -0.17987283 -0.20721444 0.041396208
0000d0 ce 0c 4d bc 41 e7 09 be f0 92 81 bd 9d 68 2f 3e
       -0.01251526 -0.13467123 -0.06326854 0.1712975
0000e0 ae 19 ed 3d 6b be 19 be 0b ae 0c 3e 54 6c 20 3e
       0.11577164 -0.15014045 0.13738267 0.15666324
0000f0 82 05 9a bd 22 c5 71 3b b6 01 d3 3d 62 f1 9b bd
       -0.07520582 0.0036891182 0.10303061 -0.076143995
000100 fd 56 c0 3d 6e dd da 3c db b8 02 be 5b 51 dc 3d
       0.09391592 0.026716914 -0.1276583 0.10757705
000110 35 5e 1a 3e 60 d8 9f bd 19 8a 93 3c 9a 27 26 3d
       0.15075 -0.07804942 0.018010186 0.04056511
000120 a2 1b d6 bc 90 a1 b9 3d fe 08 be bd e6 53 01 bd
       -0.026136223 0.09064019 -0.09279059 -0.031574152
000130 f9 15 cd 3d 4e a0 e8 3d 22 33 1c bc da 53 80 3d
       0.100139566 0.11358701 -0.009533675 0.062659934
000140 87 a6 bd 3d 1a cc 53 bd 43 36 21 be ff d5 a3 bd
       0.09260278 -0.05170832 -0.15743355 -0.07999801
000150 62 82 f9 3d 82 4d 48 3d e1 d0 30 b9 18 02 e7 bc
       0.12183072 0.048902042 -0.00016862481 -0.02819924
000160 84 e0 66 3d 26 72 55 bc 5b ec e0 bd df dc a1 bd
       0.05636646 -0.013027703 -0.10982581 -0.07903456
000170 8a 73 b4 bd 78 ec 2d bd 71 3e 76 bd 48 18 7a 3b
       -0.088111 -0.042461842 -0.060118143 0.0038161445
000180 eb 0e cc 3c 13 e0 77 3c a3 14 b7 3c 3b 03 8c bd
       0.024909457 0.015129107 0.022348708 -0.06836554
000190 a9 06 6e bd 82 c4 98 bd 2d fc 94 bd 4f 9d 1a be
       -0.05811182 -0.07459356 -0.07274661 -0.15099071
0001a0 58 e8 7e 3a 78 a8 a2 bc e0 06 e6 bc 76 08 b8 3d
       0.0009723953 -0.019855723 -0.02807945 0.08985989
0001b0 69 04 bc 3d 83 71 d0 3d 97 d8 9b 3d a6 f9 cd bd
       0.09180529 0.10177901 0.076096706 -0.10057382
0001c0 c7 3b bb bd e3 1e 59 bc 4b d6 a2 bc 98 d5 bd bd
       -0.09142261 -0.013251993 -0.019877573 -0.092692554
0001d0 f3 9f d7 bd 2c 9a 6d bb 93 73 d4 bd 84 49 94 bc
       -0.10528555 -0.0036255224 -0.103736065 -0.018101461
0001e0 29 9d a9 bd 08 08 90 be 23 8d 4f be 39 15 8c bc
       -0.08281929 -0.28131127 -0.20268683 -0.017099964
0001f0 ba f3 97 bd cb 46 c1 bd 9c 1a 01 3d c2 d5 e0 bd
       -0.07419534 -0.09437331 0.031519517 -0.10978271
000200 72 b5 04 be ab c5 50 3e 0d fb 0c bd 4c f8 b3 bd
       -0.12959841 0.20387904 -0.03441911 -0.08787593
000210 29 df b2 3c ec 06 bf bd 5a 0b 01 be 31 82 a7 bd
       0.021834927 -0.09327492 -0.12601987 -0.08179129
000220 eb bb 90 bc 00 84 08 3d 5f d8 0a 3d 3d 0f b7 3d
       -0.017667731 0.03332901 0.033897754 0.08938453
000230 88 e3 68 3c 13 35 aa bd 3e 16 b4 bd 42 d1 ba bc
       0.014214404 -0.08310904 -0.08793305 -0.02280486
000240 58 bb 9e bb 69 4c 6e 3a 4a 21 95 3d 38 d6 3e be
       -0.0048441105 0.00090903655 0.0728174 -0.18636405
000250 e8 f5 5d be 65 b8 62 bd c9 9f 02 bd 8c a5 84 bd
       -0.21675837 -0.055351634 -0.031890664 -0.06476888
000260 64 32 57 3d bd ce a0 bd 70 c3 94 3d bb 41 bd 3d
       0.05253829 -0.07851932 0.07263839 0.09241053
000270 bc fc a0 bd 11 b7 27 3d 42 5d d0 3d 22 87 67 bd
       -0.07860705 0.04094607 0.101740375 -0.056525357
000280 e2 09 f0 bc 92 4c 5a bd 66 45 0e 3d fe 6d 93 3d
       -0.029301587 -0.05329568 0.034734152 0.07198714
000290 20 8d fb ba b5 f0 1c bd 0c 6d 45 bd f4 ae ca 3d
       -0.0019191839 -0.038315494 -0.0481997 0.09896651
0002a0 ea 2f d6 bc ca 21 48 3c fc 8a 8b bc f0 7d d7 3c
       -0.026145894 0.012215087 -0.017034046 0.026305169
0002b0 af 04 a2 bc 08 5b 41 bd b7 7f bd 3d 92 2b 79 bd
       -0.019777624 -0.047205955 0.09252875 -0.060832568
0002c0 34 0f 62 bd 56 67 fd 3d 64 03 26 3d aa 0c 45 bd
       -0.05519028 0.123732254 0.040530577 -0.04810778
0002d0 6f 27 06 bd eb f6 03 3e 13 33 42 bd 02 2c c3 bd
       -0.03275245 0.1288716 -0.04741199 -0.09529878
0002e0 c7 8c ca 3d 5f c5 5f 3d a3 6f d3 bc 42 a5 26 3c
       0.098901324 0.054631587 -0.025810068 0.0101712365
0002f0 5e f9 5b 3d 9e 31 b2 3c 0b fc 2b 3e a3 cd 0c 3c
       0.053704612 0.021752175 0.16795366 0.0085939495
000300 09 12 ca 3c 42 c4 1d 3e fc 88 82 3d 2f 8b 9c bc
       0.024666803 0.15406898 0.06373784 -0.019109337
000310 85 fb 33 3c 6f af ca bc 97 84 57 bc c4 01 14 bd
       0.01098526 -0.024741856 -0.0131541705 -0.036134496
000320 23 09 e2 3c 17 43 c3 3d 1c ea 32 be 55 35 41 bc
       0.027592247 0.09534281 -0.17472118 -0.0117925005
000330 af 89 39 bb 1b 88 81 3c 6c a2 8f 3d 44 22 b7 3c
       -0.0028310826 0.01581197 0.070134014 0.022355206
000340 fc c6 2b 3c cb 28 48 3d be 85 ca 3d 8f 41 a1 3c
       0.010484453 0.04886703 0.098887905 0.019684581
000350 de 81 1e be 05 51 6e bd 7f c3 8f 3d 0a 92 81 3d
       -0.15479228 -0.058182735 0.0701971 0.06326683
000360 25 e9 1d be 91 fc 81 bd ac 07 01 bd 0a 0d 14 3e
       -0.15420969 -0.06347001 -0.031501457 0.14458099
000370 62 70 bd bc 6f 61 19 be f3 72 6d 3d 75 25 b5 3d
       -0.023124877 -0.14978574 0.057970952 0.08845035
000380 8a 8b 1f 3e 78 e2 37 bd ca 20 ba bd ab 80 11 be
       0.15580574 -0.04489371 -0.09088285 -0.14209239
000390 13 d0 b0 bc cd a6 7d bd 40 e3 30 be f9 7f 4f 3b
       -0.021583593 -0.06192665 -0.17274189 0.003166197
0003a0 21 4f ec 3b 1d 95 7b bd d6 87 a9 3d df d2 b8 3c
       0.0072115813 -0.061421502 0.08277862 0.022561489
0003b0 0e e0 40 bc 34 50 30 3c 92 55 c0 bc a1 f8 b2 bc
       -0.011772169 0.010761309 -0.023478303 -0.021847071
0003c0 68 b2 43 bd 98 57 85 bc 63 90 bc 3b 2e 4d 5b bd
       -0.047777563 -0.01627712 0.005754517 -0.0535404
0003d0 88 5b c9 bd d6 31 9d bd 52 9f 01 be 90 0c de bd
       -0.09831911 -0.07675521 -0.12658432 -0.1084224
0003e0 14 90 12 3d df 02 c3 bc 73 95 14 3b e0 a9 9c bc
       0.035781935 -0.02380508 0.0022672086 -0.019123971
0003f0 d9 26 f7 bd f5 94 8d be af c9 91 be aa 6a 3b be
       -0.120679565 -0.27652708 -0.28474185 -0.18302408

tfeb.12.weight f4 [31]
000000 e8 1d fd 3e 8e 0f 15 3f ee 99 04 3f 46 57 b5 3e
       0.4943688 0.5822686 0.5179738 0.35418147
000010 6f 35 1b 3f 81 cb 14 3f 07 74 ce 3e df 06 ca 3e
       0.6062841 0.5812302 0.40322897 0.39458367
000020 d4 9b c3 3e 00 4b ad 3e 2f 5d d8 3e 29 f9 f4 3e
       0.38204825 0.33846283 0.42258593 0.47846344
000030 90 d7 08 3f 08 a4 d1 3e 38 31 df 3e a1 5b ec 3e
       0.5345392 0.40945458 0.43592238 0.46163657
000040 b3 4f 09 3f 27 b5 e6 3e 5e 27 bc 3e ec b5 b3 3e
       0.53637236 0.45060083 0.36748785 0.35099733
000050 a1 51 c5 3e 1d 09 a2 3e e3 7d ba 3e 5a 50 2f 3f
       0.3853884 0.31647578 0.3642417 0.6848198
000060 07 fd ea 3e b0 f0 bb 3e 97 8b d4 3e 92 aa d0 3e
       0.4589617 0.36707067 0.4151275 0.40755135
000070 27 d0 cc 3e c1 46 20 3f cc ec a0 3e
       0.40002558 0.6260796 0.31430662

tfeb.12.bias f4 [31]
000000 95 2a 37 bd c3 6d 5d be 05 84 73 be 55 6a 5e 3e
       -0.044718344 -0.21623902 -0.2378083 0.2172025
000010 f9 d4 37 be ad f3 7d be 45 61 6d 3d cc 35 30 3e
       -0.17952336 -0.24799986 0.05795409 0.17208022
000020 34 fb ce 3c 3c 9b 84 3e d7 9e 8a 3c 59 c2 6f be
       0.025266267 0.25899684 0.016921444 -0.23413981
000030 83 19 4e be 62 17 ab bc 4e c8 82 be cc 13 36 be
       -0.2012692 -0.020885173 -0.25543445 -0.1778099
000040 a6 a9 37 3d 73 9a 1a bd 66 65 5e bd 92 bb 33 3e
       0.044839524 -0.03774495 -0.05429592 0.17552021
000050 27 1a 2c ba ec 38 8f bc 25 60 84 bc fd 1a ed be
       -0.00065651763 -0.017483197 -0.016159127 -0.46309653
000060 0d 86 e4 bd 0c 24 a8 3c d3 be b5 3d 4b a4 3e bd
       -0.11158381 0.020525001 0.088742875 -0.0465434
000070 19 6d 92 3d 9d 3a 03 be 51 90 69 bd
       0.07149715 -0.12815328 -0.057022396

tfeb.12.running_mean f4 [31]
000000 07 08 40 bf 7e ec ee be de 09 d5 be eb f9 97 be
       -0.7501225 -0.46664804 -0.4160909 -0.2968286
000010 e4 87 96 bf 6b 47 d9 be 98 9d 18 bf b0 e6 33 bf
       -1.176022 -0.424373 -0.5961547 -0.70273876
000020 8b c7 c9 be 31 1f 24 bf 43 79 a3 bf 0a 31 ca 3e
       -0.39410052 -0.64110094 -1.2771381 0.3949054
000030 20 22 20 bf 4a 88 8d 3d d1 84 59 3e b8 7a 59 be
       -0.6255207 0.06910761 0.21242072 -0.2123822
000040 30 d5 55 bf 98 55 40 bf 7a 82 39 3d 73 89 99 3d
       -0.83528423 -0.75130606 0.045290448 0.074969195
000050 b2 21 d2 be 13 7e e9 be 4b 16 0a bf 82 92 52 bf
       -0.41041332 -0.45604 -0.53940266 -0.82254803
000060 1a 84 ba be 96 e6 31 bf da 5a 71 be d6 02 29 bf
       -0.3642891 -0.6949247 -0.23569813 -0.6601995
000070 34 95 9a bf a8 1e 75 bf 05 22 cc 3d
       -1.2076783 -0.957499 0.09967426

tfeb.12.running_var f4 [31]
000000 b7 fa 2f 3f a7 a8 db 3e b3 0f 6a 3e 45 cf 17 3f
       0.68741935 0.4290211 0.22857551 0.59300643
000010 b7 60 83 3f f7 1e 06 3f 74 25 03 3f bd 2f fa 3e
       1.026389 0.52391 0.51229024 0.48864546
000020 1e f8 bb 3e 43 4e 8d 3e d6 bc 0b 3f 43 39 8e 3e
       0.36712736 0.2759877 0.54585016 0.27778062
000030 32 e3 b6 3e 33 2d d7 3e 09 ad 87 3e d5 3d 76 3e
       0.3572021 0.42026672 0.26499203 0.24047025
000040 ba a8 2a 3f 84 07 f7 3e ae de c7 3e 27 40 27 3f
       0.66663706 0.4824792 0.3903708 0.65332264
000050 49 10 9a 3e dd 8d 88 3e 82 50 a6 3e 78 05 fa 3e
       0.3009055 0.26670733 0.32483298 0.48832297
000060 1f c6 b1 3e e7 29 9e 3e a7 20 18 3f 7c 98 a2 3e
       0.34721467 0.30891344 0.59424824 0.3175696
000070 77 7a da 3e bb f6 6f 3f f7 b4 d5 3e
       0.42671558 0.93735856 0.41739628
